#map = affine_map<()[s0, s1, s2] -> (s1 * 16 + s2 * 256 + s0 floordiv 16 - ((s1 * 16 + s0 floordiv 16) floordiv 256) * 256)>
#map1 = affine_map<()[s0] -> (s0 * 16 - (s0 floordiv 16) * 256)>
#map2 = affine_map<()[s0, s1, s2] -> (s1 * 16 + s2 * 256 + s0 floordiv 16 - ((s1 * 16 + s0 floordiv 16 + 32) floordiv 256) * 256 + 32)>
#map3 = affine_map<()[s0, s1, s2] -> (s1 * 16 + s2 * 256 + s0 floordiv 16 - ((s1 * 16 + s0 floordiv 16 + 64) floordiv 256) * 256 + 64)>
#map4 = affine_map<()[s0, s1, s2] -> (s1 * 16 + s2 * 256 + s0 floordiv 16 - ((s1 * 16 + s0 floordiv 16 + 96) floordiv 256) * 256 + 96)>
#map5 = affine_map<()[s0, s1, s2] -> (s1 * 16 + s2 * 256 + s0 floordiv 16 - ((s1 * 16 + s0 floordiv 16 + 128) floordiv 256) * 256 + 128)>
#map6 = affine_map<()[s0, s1, s2] -> (s1 * 16 + s2 * 256 + s0 floordiv 16 - ((s1 * 16 + s0 floordiv 16 + 160) floordiv 256) * 256 + 160)>
#map7 = affine_map<()[s0, s1, s2] -> (s1 * 16 + s2 * 256 + s0 floordiv 16 - ((s1 * 16 + s0 floordiv 16 + 192) floordiv 256) * 256 + 192)>
#map8 = affine_map<()[s0, s1, s2] -> (s1 * 16 + s2 * 256 + s0 floordiv 16 - ((s1 * 16 + s0 floordiv 16 + 224) floordiv 256) * 256 + 224)>
#map9 = affine_map<()[s0, s1, s2] -> (s1 * 128 + s2 * 256 + s0 floordiv 2 - ((s1 * 128 + s0 floordiv 2) floordiv 256) * 256)>
#map10 = affine_map<()[s0] -> (s0 * 8 - (s0 floordiv 2) * 16)>
#map11 = affine_map<()[s0, s1] -> ((s1 * 16 + s0 floordiv 16) mod 256)>
#map12 = affine_map<()[s0, s1] -> (s1 * 16 + s0 floordiv 16 - ((s1 * 16 + s0 floordiv 16 + 32) floordiv 256) * 256 + 32)>
#map13 = affine_map<()[s0, s1] -> (s1 * 16 + s0 floordiv 16 - ((s1 * 16 + s0 floordiv 16 + 64) floordiv 256) * 256 + 64)>
#map14 = affine_map<()[s0, s1] -> (s1 * 16 + s0 floordiv 16 - ((s1 * 16 + s0 floordiv 16 + 96) floordiv 256) * 256 + 96)>
#map15 = affine_map<()[s0, s1] -> (s1 * 16 + s0 floordiv 16 - ((s1 * 16 + s0 floordiv 16 + 128) floordiv 256) * 256 + 128)>
#map16 = affine_map<()[s0, s1] -> (s1 * 16 + s0 floordiv 16 - ((s1 * 16 + s0 floordiv 16 + 160) floordiv 256) * 256 + 160)>
#map17 = affine_map<()[s0, s1] -> (s1 * 16 + s0 floordiv 16 - ((s1 * 16 + s0 floordiv 16 + 192) floordiv 256) * 256 + 192)>
#map18 = affine_map<()[s0, s1] -> (s1 * 16 + s0 floordiv 16 - ((s1 * 16 + s0 floordiv 16 + 224) floordiv 256) * 256 + 224)>
#map19 = affine_map<()[s0, s1] -> ((s1 * 128 + s0 floordiv 2) mod 256)>
#map21 = affine_map<()[s0] -> ((s0 mod 64) floordiv 16)>
#map22 = affine_map<()[s0] -> ((s0 mod 64) floordiv 16 + 4)>

//MFMA loads. Row offset : tidx%16 + offset of 16 for other MFMA tiles
// range of 128 row per tidy
// #map20 = affine_map<()[s0, s1] -> (s0 + s1 * 128 - (s0 floordiv 16) * 16)>
// #map23 = affine_map<()[s0, s1] -> (s0 + s1 * 128 - (s0 floordiv 16) * 16 + 16)>
// #map24 = affine_map<()[s0, s1] -> (s0 + s1 * 128 - (s0 floordiv 16) * 16 + 32)>
// #map25 = affine_map<()[s0, s1] -> (s0 + s1 * 128 - (s0 floordiv 16) * 16 + 48)>
// #map26 = affine_map<()[s0, s1] -> (s0 + s1 * 128 - (s0 floordiv 16) * 16 + 64)>
// #map27 = affine_map<()[s0, s1] -> (s0 + s1 * 128 - (s0 floordiv 16) * 16 + 80)>
// #map28 = affine_map<()[s0, s1] -> (s0 + s1 * 128 - (s0 floordiv 16) * 16 + 96)>
// #map29 = affine_map<()[s0, s1] -> (s0 + s1 * 128 - (s0 floordiv 16) * 16 + 112)>


#map20 = affine_map<()[s0, s1] -> ( s1 * 128 + 0)>
#map23 = affine_map<()[s0, s1] -> (  s1 * 128 +16)>
#map24 = affine_map<()[s0, s1] -> (  s1 * 128 +32)>
#map25 = affine_map<()[s0, s1] -> (  s1 * 128 +48)>
#map26 = affine_map<()[s0, s1] -> (  s1 * 128 +64)>
#map27 = affine_map<()[s0, s1] -> (  s1 * 128 +80)>
#map28 = affine_map<()[s0, s1] -> (  s1 * 128 +96)>
#map29 = affine_map<()[s0, s1] -> (  s1 * 128 +112)>



#map30 = affine_map<()[s0] -> ((s0 mod 64) floordiv 16 + 8)>
#map31 = affine_map<()[s0] -> ((s0 mod 64) floordiv 16 + 12)>

//MFMA loads B

// #map32 = affine_map<()[s0] -> (s0 mod 16 + (s0 floordiv 64) * 64)>
// #map33 = affine_map<()[s0] -> (s0 mod 16 + (s0 floordiv 64) * 64 + 16)>
// #map34 = affine_map<()[s0] -> (s0 mod 16 + (s0 floordiv 64) * 64 + 32)>
// #map35 = affine_map<()[s0] -> (s0 mod 16 + (s0 floordiv 64) * 64 + 48)>

#map32 = affine_map<()[s0] -> ((s0 floordiv 64) * 64)>
#map33 = affine_map<()[s0] -> ((s0 floordiv 64) * 64 + 16)>
#map34 = affine_map<()[s0] -> ( (s0 floordiv 64) * 64 + 32)>
#map35 = affine_map<()[s0] -> ( (s0 floordiv 64) * 64 + 48)>

//MFMA Loads A . column offset
// LaneId
#map36 = affine_map<()[s0] -> (((s0 mod 64) floordiv 16) * 16)>
#map37 = affine_map<()[s0] -> (((s0 mod 64) floordiv 16) * 16 + 64)>
#map38 = affine_map<()[s0] -> (((s0 mod 64) floordiv 16) * 16 + 128)>
#map39 = affine_map<()[s0] -> (((s0 mod 64) floordiv 16) * 16 + 192)>


#map40 = affine_map<()[s0, s1] -> (s0 * 16 + s1 * 8 - (s1 floordiv 2) * 16 + 16)>
#map41 = affine_map<()[s0, s1] -> (s0 * 256 + s1 * 16 - (s1 floordiv 16) * 256 + 256)>
#map42 = affine_map<()[s0] -> (s0 * 256)>
#map43 = affine_map<()[s0] -> ((s0 floordiv 64) * 64 + ((s0 mod 64) floordiv 16) * 4)>
#map44 = affine_map<()[s0] -> ((s0 floordiv 64) * 64 + ((s0 mod 64) floordiv 16) * 4 + 1)>
#map45 = affine_map<()[s0] -> ((s0 floordiv 64) * 64 + ((s0 mod 64) floordiv 16) * 4 + 2)>
#map46 = affine_map<()[s0] -> ((s0 floordiv 64) * 64 + ((s0 mod 64) floordiv 16) * 4 + 3)>
#map47 = affine_map<()[s0] -> ((s0 floordiv 64) * 64 + ((s0 mod 64) floordiv 16) * 4 + 16)>
#map48 = affine_map<()[s0] -> ((s0 floordiv 64) * 64 + ((s0 mod 64) floordiv 16) * 4 + 17)>
#map49 = affine_map<()[s0] -> ((s0 floordiv 64) * 64 + ((s0 mod 64) floordiv 16) * 4 + 18)>
#map50 = affine_map<()[s0] -> ((s0 floordiv 64) * 64 + ((s0 mod 64) floordiv 16) * 4 + 19)>
#map51 = affine_map<()[s0] -> ((s0 floordiv 64) * 64 + ((s0 mod 64) floordiv 16) * 4 + 32)>
#map52 = affine_map<()[s0] -> ((s0 floordiv 64) * 64 + ((s0 mod 64) floordiv 16) * 4 + 33)>
#map53 = affine_map<()[s0] -> ((s0 floordiv 64) * 64 + ((s0 mod 64) floordiv 16) * 4 + 34)>
#map54 = affine_map<()[s0] -> ((s0 floordiv 64) * 64 + ((s0 mod 64) floordiv 16) * 4 + 35)>
#map55 = affine_map<()[s0] -> ((s0 floordiv 64) * 64 + ((s0 mod 64) floordiv 16) * 4 + 48)>
#map56 = affine_map<()[s0] -> ((s0 floordiv 64) * 64 + ((s0 mod 64) floordiv 16) * 4 + 49)>
#map57 = affine_map<()[s0] -> ((s0 floordiv 64) * 64 + ((s0 mod 64) floordiv 16) * 4 + 50)>
#map58 = affine_map<()[s0] -> ((s0 floordiv 64) * 64 + ((s0 mod 64) floordiv 16) * 4 + 51)>
#translation = #iree_codegen.translation_info<pipeline = None workgroup_size = [256, 2, 1] subgroup_size = 64, {llvm_func_attrs = {"amdgpu-waves-per-eu" = "1"}}>
module attributes {transform.with_named_sequence} {
  stream.executable private @gemm_afp4_wfp4_wave {
    stream.executable.export public @gemm_afp4_wfp4_wave workgroups() -> (index, index, index) {
      %c64 = arith.constant 64 : index
      %c1 = arith.constant 1 : index
      stream.return %c64, %c64, %c1 : index, index, index
    }
    builtin.module {
      func.func @gemm_afp4_wfp4_wave(%arg0: !stream.binding, %arg1: !stream.binding, %arg2: !stream.binding, %arg3: !stream.binding, %arg4: !stream.binding) attributes {translation_info = #translation} {
        %c512_i14 = arith.constant 512 : i14
        %c-8192_i14 = arith.constant -8192 : i14
        %c2147483645_i32 = arith.constant 2147483645 : i32
        %c1073741822 = arith.constant 1073741822 : index
        %c16384 = arith.constant 16384 : index
        %c31 = arith.constant 31 : index
        %c512 = arith.constant 512 : index
        %c2147483646_i32 = arith.constant 2147483646 : i32
        %c2147483646 = arith.constant 2147483646 : index
        %c8192 = arith.constant 8192 : index
        %c1 = arith.constant 1 : index
        
        %c69632 = arith.constant 69632 : index
        // %c67584 = arith.constant 67584 : index
        // %c141312 = arith.constant 141312 : index
        %c145408 = arith.constant 141312 : index
        %c0 = arith.constant 0 : index
        // %c135168 = arith.constant 135168 : index
        %c139264 = arith.constant 139264 : index
        %cst = arith.constant dense<0.000000e+00> : vector<4xf32>
        %block_id_x = gpu.block_id  x upper_bound 64
        %block_id_y = gpu.block_id  y upper_bound 64
        %thread_id_x = gpu.thread_id  x upper_bound 256
        %thread_id_y = gpu.thread_id  y upper_bound 2
        %alloc = memref.alloc() : memref<151552xi8, #gpu.address_space<workgroup>>
        %view = memref.view %alloc[%c139264][] : memref<151552xi8, #gpu.address_space<workgroup>> to memref<256x24xi8, #gpu.address_space<workgroup>>
        %view_0 = memref.view %alloc[%c0][] : memref<151552xi8, #gpu.address_space<workgroup>> to memref<256x272xi8, #gpu.address_space<workgroup>>
        %view_1 = memref.view %alloc[%c145408][] : memref<151552xi8, #gpu.address_space<workgroup>> to memref<256x24xi8, #gpu.address_space<workgroup>>
        %view_2 = memref.view %alloc[%c69632][] : memref<151552xi8, #gpu.address_space<workgroup>> to memref<256x272xi8, #gpu.address_space<workgroup>>
        %0 = stream.binding.subspan %arg0[%c0] : !stream.binding -> memref<16384x8192xi8, strided<[8192, 1], offset: ?>>
        %1 = affine.apply #map()[%thread_id_x, %thread_id_y, %block_id_x]
        %2 = affine.apply #map1()[%thread_id_x]
        %3 = arith.muli %1, %c8192 overflow<nsw> : index
        %4 = arith.addi %3, %2 overflow<nsw> : index
        %reinterpret_cast = memref.reinterpret_cast %0 to offset: [%c0], sizes: [%c2147483646], strides: [1] : memref<16384x8192xi8, strided<[8192, 1], offset: ?>> to memref<?xi8, strided<[1], offset: ?>>
        %5 = amdgpu.fat_raw_buffer_cast %reinterpret_cast validBytes(%c2147483646_i32) cacheSwizzleStride(%c-8192_i14) : memref<?xi8, strided<[1], offset: ?>> to memref<?xi8, strided<[1], offset: ?>, #amdgpu.address_space<fat_raw_buffer>>
        %6 = vector.load %5[%4] : memref<?xi8, strided<[1], offset: ?>, #amdgpu.address_space<fat_raw_buffer>>, vector<16xi8>
        %7 = affine.apply #map2()[%thread_id_x, %thread_id_y, %block_id_x]
        %8 = arith.muli %7, %c8192 overflow<nsw> : index
        %9 = arith.addi %8, %2 overflow<nsw> : index
        %10 = vector.load %5[%9] : memref<?xi8, strided<[1], offset: ?>, #amdgpu.address_space<fat_raw_buffer>>, vector<16xi8>
        %11 = affine.apply #map3()[%thread_id_x, %thread_id_y, %block_id_x]
        %12 = arith.muli %11, %c8192 overflow<nsw> : index
        %13 = arith.addi %12, %2 overflow<nsw> : index
        %14 = vector.load %5[%13] : memref<?xi8, strided<[1], offset: ?>, #amdgpu.address_space<fat_raw_buffer>>, vector<16xi8>
        %15 = affine.apply #map4()[%thread_id_x, %thread_id_y, %block_id_x]
        %16 = arith.muli %15, %c8192 overflow<nsw> : index
        %17 = arith.addi %16, %2 overflow<nsw> : index
        %18 = vector.load %5[%17] : memref<?xi8, strided<[1], offset: ?>, #amdgpu.address_space<fat_raw_buffer>>, vector<16xi8>
        %19 = affine.apply #map5()[%thread_id_x, %thread_id_y, %block_id_x]
        %20 = arith.muli %19, %c8192 overflow<nsw> : index
        %21 = arith.addi %20, %2 overflow<nsw> : index
        %22 = vector.load %5[%21] : memref<?xi8, strided<[1], offset: ?>, #amdgpu.address_space<fat_raw_buffer>>, vector<16xi8>
        %23 = affine.apply #map6()[%thread_id_x, %thread_id_y, %block_id_x]
        %24 = arith.muli %23, %c8192 overflow<nsw> : index
        %25 = arith.addi %24, %2 overflow<nsw> : index
        %26 = vector.load %5[%25] : memref<?xi8, strided<[1], offset: ?>, #amdgpu.address_space<fat_raw_buffer>>, vector<16xi8>
        %27 = affine.apply #map7()[%thread_id_x, %thread_id_y, %block_id_x]
        %28 = arith.muli %27, %c8192 overflow<nsw> : index
        %29 = arith.addi %28, %2 overflow<nsw> : index
        %30 = vector.load %5[%29] : memref<?xi8, strided<[1], offset: ?>, #amdgpu.address_space<fat_raw_buffer>>, vector<16xi8>
        %31 = affine.apply #map8()[%thread_id_x, %thread_id_y, %block_id_x]
        %32 = arith.muli %31, %c8192 overflow<nsw> : index
        %33 = arith.addi %32, %2 overflow<nsw> : index
        %34 = vector.load %5[%33] : memref<?xi8, strided<[1], offset: ?>, #amdgpu.address_space<fat_raw_buffer>>, vector<16xi8>
        %35 = stream.binding.subspan %arg1[%c0] : !stream.binding -> memref<16384x512xi8, strided<[512, 1], offset: ?>>
        %36 = affine.apply #map9()[%thread_id_x, %thread_id_y, %block_id_x]
        %37 = affine.apply #map10()[%thread_id_x]
        %38 = arith.muli %36, %c512 overflow<nsw> : index
        %39 = arith.addi %38, %37 overflow<nsw> : index
        %reinterpret_cast_3 = memref.reinterpret_cast %35 to offset: [%c0], sizes: [%c2147483646], strides: [1] : memref<16384x512xi8, strided<[512, 1], offset: ?>> to memref<?xi8, strided<[1], offset: ?>>
        %40 = amdgpu.fat_raw_buffer_cast %reinterpret_cast_3 validBytes(%c2147483646_i32) cacheSwizzleStride(%c512_i14) : memref<?xi8, strided<[1], offset: ?>> to memref<?xi8, strided<[1], offset: ?>, #amdgpu.address_space<fat_raw_buffer>>
        %41 = vector.load %40[%39] : memref<?xi8, strided<[1], offset: ?>, #amdgpu.address_space<fat_raw_buffer>>, vector<8xi8>
        %42 = stream.binding.subspan %arg2[%c0] : !stream.binding -> memref<16384x8192xi8, strided<[8192, 1], offset: ?>>
        %43 = affine.apply #map()[%thread_id_x, %thread_id_y, %block_id_y]
        %44 = arith.muli %43, %c8192 overflow<nsw> : index
        %45 = arith.addi %44, %2 overflow<nsw> : index
        %reinterpret_cast_4 = memref.reinterpret_cast %42 to offset: [%c0], sizes: [%c2147483646], strides: [1] : memref<16384x8192xi8, strided<[8192, 1], offset: ?>> to memref<?xi8, strided<[1], offset: ?>>
        %46 = amdgpu.fat_raw_buffer_cast %reinterpret_cast_4 validBytes(%c2147483646_i32) cacheSwizzleStride(%c-8192_i14) : memref<?xi8, strided<[1], offset: ?>> to memref<?xi8, strided<[1], offset: ?>, #amdgpu.address_space<fat_raw_buffer>>
        %47 = vector.load %46[%45] : memref<?xi8, strided<[1], offset: ?>, #amdgpu.address_space<fat_raw_buffer>>, vector<16xi8>
        %48 = affine.apply #map2()[%thread_id_x, %thread_id_y, %block_id_y]
        %49 = arith.muli %48, %c8192 overflow<nsw> : index
        %50 = arith.addi %49, %2 overflow<nsw> : index
        %51 = vector.load %46[%50] : memref<?xi8, strided<[1], offset: ?>, #amdgpu.address_space<fat_raw_buffer>>, vector<16xi8>
        %52 = affine.apply #map3()[%thread_id_x, %thread_id_y, %block_id_y]
        %53 = arith.muli %52, %c8192 overflow<nsw> : index
        %54 = arith.addi %53, %2 overflow<nsw> : index
        %55 = vector.load %46[%54] : memref<?xi8, strided<[1], offset: ?>, #amdgpu.address_space<fat_raw_buffer>>, vector<16xi8>
        %56 = affine.apply #map4()[%thread_id_x, %thread_id_y, %block_id_y]
        %57 = arith.muli %56, %c8192 overflow<nsw> : index
        %58 = arith.addi %57, %2 overflow<nsw> : index
        %59 = vector.load %46[%58] : memref<?xi8, strided<[1], offset: ?>, #amdgpu.address_space<fat_raw_buffer>>, vector<16xi8>
        %60 = affine.apply #map5()[%thread_id_x, %thread_id_y, %block_id_y]
        %61 = arith.muli %60, %c8192 overflow<nsw> : index
        %62 = arith.addi %61, %2 overflow<nsw> : index
        %63 = vector.load %46[%62] : memref<?xi8, strided<[1], offset: ?>, #amdgpu.address_space<fat_raw_buffer>>, vector<16xi8>
        %64 = affine.apply #map6()[%thread_id_x, %thread_id_y, %block_id_y]
        %65 = arith.muli %64, %c8192 overflow<nsw> : index
        %66 = arith.addi %65, %2 overflow<nsw> : index
        %67 = vector.load %46[%66] : memref<?xi8, strided<[1], offset: ?>, #amdgpu.address_space<fat_raw_buffer>>, vector<16xi8>
        %68 = affine.apply #map7()[%thread_id_x, %thread_id_y, %block_id_y]
        %69 = arith.muli %68, %c8192 overflow<nsw> : index
        %70 = arith.addi %69, %2 overflow<nsw> : index
        %71 = vector.load %46[%70] : memref<?xi8, strided<[1], offset: ?>, #amdgpu.address_space<fat_raw_buffer>>, vector<16xi8>
        %72 = affine.apply #map8()[%thread_id_x, %thread_id_y, %block_id_y]
        %73 = arith.muli %72, %c8192 overflow<nsw> : index
        %74 = arith.addi %73, %2 overflow<nsw> : index
        %75 = vector.load %46[%74] : memref<?xi8, strided<[1], offset: ?>, #amdgpu.address_space<fat_raw_buffer>>, vector<16xi8>
        %76 = stream.binding.subspan %arg3[%c0] : !stream.binding -> memref<16384x512xi8, strided<[512, 1], offset: ?>>
        %77 = affine.apply #map9()[%thread_id_x, %thread_id_y, %block_id_y]
        %78 = arith.muli %77, %c512 overflow<nsw> : index
        %79 = arith.addi %78, %37 overflow<nsw> : index
        %reinterpret_cast_5 = memref.reinterpret_cast %76 to offset: [%c0], sizes: [%c2147483646], strides: [1] : memref<16384x512xi8, strided<[512, 1], offset: ?>> to memref<?xi8, strided<[1], offset: ?>>
        %80 = amdgpu.fat_raw_buffer_cast %reinterpret_cast_5 validBytes(%c2147483646_i32) cacheSwizzleStride(%c512_i14) : memref<?xi8, strided<[1], offset: ?>> to memref<?xi8, strided<[1], offset: ?>, #amdgpu.address_space<fat_raw_buffer>>
        %81 = vector.load %80[%79] : memref<?xi8, strided<[1], offset: ?>, #amdgpu.address_space<fat_raw_buffer>>, vector<8xi8>
        %82 = affine.apply #map11()[%thread_id_x, %thread_id_y]
        vector.store %6, %view_2[%82, %2] : memref<256x272xi8, #gpu.address_space<workgroup>>, vector<16xi8>
        %83 = affine.apply #map12()[%thread_id_x, %thread_id_y]
        vector.store %10, %view_2[%83, %2] : memref<256x272xi8, #gpu.address_space<workgroup>>, vector<16xi8>
        %84 = affine.apply #map13()[%thread_id_x, %thread_id_y]
        vector.store %14, %view_2[%84, %2] : memref<256x272xi8, #gpu.address_space<workgroup>>, vector<16xi8>
        %85 = affine.apply #map14()[%thread_id_x, %thread_id_y]
        vector.store %18, %view_2[%85, %2] : memref<256x272xi8, #gpu.address_space<workgroup>>, vector<16xi8>
        %86 = affine.apply #map15()[%thread_id_x, %thread_id_y]
        vector.store %22, %view_2[%86, %2] : memref<256x272xi8, #gpu.address_space<workgroup>>, vector<16xi8>
        %87 = affine.apply #map16()[%thread_id_x, %thread_id_y]
        vector.store %26, %view_2[%87, %2] : memref<256x272xi8, #gpu.address_space<workgroup>>, vector<16xi8>
        %88 = affine.apply #map17()[%thread_id_x, %thread_id_y]
        vector.store %30, %view_2[%88, %2] : memref<256x272xi8, #gpu.address_space<workgroup>>, vector<16xi8>
        %89 = affine.apply #map18()[%thread_id_x, %thread_id_y]
        vector.store %34, %view_2[%89, %2] : memref<256x272xi8, #gpu.address_space<workgroup>>, vector<16xi8>
        %90 = affine.apply #map19()[%thread_id_x, %thread_id_y]
        // vector.store %41, %view_1[%90, %37] : memref<256x24xi8, #gpu.address_space<workgroup>>, vector<8xi8>
        vector.store %47, %view_0[%82, %2] : memref<256x272xi8, #gpu.address_space<workgroup>>, vector<16xi8>
        vector.store %51, %view_0[%83, %2] : memref<256x272xi8, #gpu.address_space<workgroup>>, vector<16xi8>
        vector.store %55, %view_0[%84, %2] : memref<256x272xi8, #gpu.address_space<workgroup>>, vector<16xi8>
        vector.store %59, %view_0[%85, %2] : memref<256x272xi8, #gpu.address_space<workgroup>>, vector<16xi8>
        vector.store %63, %view_0[%86, %2] : memref<256x272xi8, #gpu.address_space<workgroup>>, vector<16xi8>
        vector.store %67, %view_0[%87, %2] : memref<256x272xi8, #gpu.address_space<workgroup>>, vector<16xi8>
        vector.store %71, %view_0[%88, %2] : memref<256x272xi8, #gpu.address_space<workgroup>>, vector<16xi8>
        vector.store %75, %view_0[%89, %2] : memref<256x272xi8, #gpu.address_space<workgroup>>, vector<16xi8>
        // vector.store %81, %view[%90, %37] : memref<256x24xi8, #gpu.address_space<workgroup>>, vector<8xi8>
        %91 = affine.apply #map20()[%thread_id_x, %thread_id_y]
        %92 = affine.apply #map21()[%thread_id_x]
        %93 = affine.apply #map22()[%thread_id_x]
        %94 = affine.apply #map23()[%thread_id_x, %thread_id_y]
        %95 = affine.apply #map24()[%thread_id_x, %thread_id_y]
        %96 = affine.apply #map25()[%thread_id_x, %thread_id_y]
        %97 = affine.apply #map26()[%thread_id_x, %thread_id_y]
        %98 = affine.apply #map27()[%thread_id_x, %thread_id_y]
        %99 = affine.apply #map28()[%thread_id_x, %thread_id_y]
        %100 = affine.apply #map29()[%thread_id_x, %thread_id_y]
        %101 = affine.apply #map30()[%thread_id_x]
        %102 = affine.apply #map31()[%thread_id_x]
        %103 = affine.apply #map32()[%thread_id_x]
        %104 = affine.apply #map33()[%thread_id_x]
        %105 = affine.apply #map34()[%thread_id_x]
        %106 = affine.apply #map35()[%thread_id_x]
        %107 = affine.apply #map36()[%thread_id_x]
        %108 = affine.apply #map37()[%thread_id_x]
        %109 = affine.apply #map38()[%thread_id_x]
        %110 = affine.apply #map39()[%thread_id_x]
        %111:32 = scf.for %arg5 = %c0 to %c31 step %c1 iter_args(%arg6 = %cst, %arg7 = %cst, %arg8 = %cst, %arg9 = %cst, %arg10 = %cst, %arg11 = %cst, %arg12 = %cst, %arg13 = %cst, %arg14 = %cst, %arg15 = %cst, %arg16 = %cst, %arg17 = %cst, %arg18 = %cst, %arg19 = %cst, %arg20 = %cst, %arg21 = %cst, %arg22 = %cst, %arg23 = %cst, %arg24 = %cst, %arg25 = %cst, %arg26 = %cst, %arg27 = %cst, %arg28 = %cst, %arg29 = %cst, %arg30 = %cst, %arg31 = %cst, %arg32 = %cst, %arg33 = %cst, %arg34 = %cst, %arg35 = %cst, %arg36 = %cst, %arg37 = %cst) -> (vector<4xf32>, vector<4xf32>, vector<4xf32>, vector<4xf32>, vector<4xf32>, vector<4xf32>, vector<4xf32>, vector<4xf32>, vector<4xf32>, vector<4xf32>, vector<4xf32>, vector<4xf32>, vector<4xf32>, vector<4xf32>, vector<4xf32>, vector<4xf32>, vector<4xf32>, vector<4xf32>, vector<4xf32>, vector<4xf32>, vector<4xf32>, vector<4xf32>, vector<4xf32>, vector<4xf32>, vector<4xf32>, vector<4xf32>, vector<4xf32>, vector<4xf32>, vector<4xf32>, vector<4xf32>, vector<4xf32>, vector<4xf32>) {
          %826 = affine.apply #map40()[%arg5, %thread_id_x]
          %827 = arith.addi %78, %826 overflow<nsw> : index
          %828 = vector.load %80[%827] : memref<?xi8, strided<[1], offset: ?>, #amdgpu.address_space<fat_raw_buffer>>, vector<8xi8>
          amdgpu.lds_barrier

        //Scale A ref
        //   %829 = vector.load %view[%91, %92] : memref<256x24xi8, #gpu.address_space<workgroup>>, vector<1xi8>
        //   %830 = vector.load %view[%91, %93] : memref<256x24xi8, #gpu.address_space<workgroup>>, vector<1xi8>
        //   %831 = vector.bitcast %829 : vector<1xi8> to vector<1xf8E8M0FNU>
        //   %832 = vector.load %view[%94, %92] : memref<256x24xi8, #gpu.address_space<workgroup>>, vector<1xi8>
        //   %833 = vector.bitcast %830 : vector<1xi8> to vector<1xf8E8M0FNU>
        //   %834 = vector.load %view[%94, %93] : memref<256x24xi8, #gpu.address_space<workgroup>>, vector<1xi8>
        //   %835 = vector.bitcast %832 : vector<1xi8> to vector<1xf8E8M0FNU>
        //   %836 = vector.load %view[%95, %92] : memref<256x24xi8, #gpu.address_space<workgroup>>, vector<1xi8>
        //   %837 = vector.bitcast %834 : vector<1xi8> to vector<1xf8E8M0FNU>
        //   %838 = vector.load %view[%95, %93] : memref<256x24xi8, #gpu.address_space<workgroup>>, vector<1xi8>
        //   %839 = vector.bitcast %836 : vector<1xi8> to vector<1xf8E8M0FNU>
        //   %840 = vector.load %view[%96, %92] : memref<256x24xi8, #gpu.address_space<workgroup>>, vector<1xi8>
        //   %841 = vector.bitcast %838 : vector<1xi8> to vector<1xf8E8M0FNU>
        //   %842 = vector.load %view[%96, %93] : memref<256x24xi8, #gpu.address_space<workgroup>>, vector<1xi8>
        //   %843 = vector.bitcast %840 : vector<1xi8> to vector<1xf8E8M0FNU>
        //   %844 = vector.load %view[%97, %92] : memref<256x24xi8, #gpu.address_space<workgroup>>, vector<1xi8>
        //   %845 = vector.bitcast %842 : vector<1xi8> to vector<1xf8E8M0FNU>
        //   %846 = vector.load %view[%97, %93] : memref<256x24xi8, #gpu.address_space<workgroup>>, vector<1xi8>
        //   %847 = vector.bitcast %844 : vector<1xi8> to vector<1xf8E8M0FNU>
        //   %848 = vector.load %view[%98, %92] : memref<256x24xi8, #gpu.address_space<workgroup>>, vector<1xi8>
        //   %849 = vector.bitcast %846 : vector<1xi8> to vector<1xf8E8M0FNU>
        //   %850 = vector.load %view[%98, %93] : memref<256x24xi8, #gpu.address_space<workgroup>>, vector<1xi8>
        //   %851 = vector.bitcast %848 : vector<1xi8> to vector<1xf8E8M0FNU>
        //   %852 = vector.load %view[%99, %92] : memref<256x24xi8, #gpu.address_space<workgroup>>, vector<1xi8>
        //   %853 = vector.bitcast %850 : vector<1xi8> to vector<1xf8E8M0FNU>
        //   %854 = vector.load %view[%99, %93] : memref<256x24xi8, #gpu.address_space<workgroup>>, vector<1xi8>
        //   %855 = vector.bitcast %852 : vector<1xi8> to vector<1xf8E8M0FNU>
        //   %856 = vector.load %view[%100, %92] : memref<256x24xi8, #gpu.address_space<workgroup>>, vector<1xi8>
        //   %857 = vector.bitcast %854 : vector<1xi8> to vector<1xf8E8M0FNU>
        //   %858 = vector.load %view[%100, %93] : memref<256x24xi8, #gpu.address_space<workgroup>>, vector<1xi8>
        //   %859 = vector.bitcast %856 : vector<1xi8> to vector<1xf8E8M0FNU>
        //   %860 = vector.load %view[%91, %101] : memref<256x24xi8, #gpu.address_space<workgroup>>, vector<1xi8>
        //   %861 = vector.bitcast %858 : vector<1xi8> to vector<1xf8E8M0FNU>
        //   %862 = vector.load %view[%91, %102] : memref<256x24xi8, #gpu.address_space<workgroup>>, vector<1xi8>
        //   %863 = vector.bitcast %860 : vector<1xi8> to vector<1xf8E8M0FNU>
        //   %864 = vector.load %view[%94, %101] : memref<256x24xi8, #gpu.address_space<workgroup>>, vector<1xi8>
        //   %865 = vector.bitcast %862 : vector<1xi8> to vector<1xf8E8M0FNU>
        //   %866 = vector.load %view[%94, %102] : memref<256x24xi8, #gpu.address_space<workgroup>>, vector<1xi8>
        //   %867 = vector.bitcast %864 : vector<1xi8> to vector<1xf8E8M0FNU>
        //   %868 = vector.load %view[%95, %101] : memref<256x24xi8, #gpu.address_space<workgroup>>, vector<1xi8>
        //   %869 = vector.bitcast %866 : vector<1xi8> to vector<1xf8E8M0FNU>
        //   %870 = vector.load %view[%95, %102] : memref<256x24xi8, #gpu.address_space<workgroup>>, vector<1xi8>
        //   %871 = vector.bitcast %868 : vector<1xi8> to vector<1xf8E8M0FNU>
        //   %872 = vector.load %view[%96, %101] : memref<256x24xi8, #gpu.address_space<workgroup>>, vector<1xi8>
        //   %873 = vector.bitcast %870 : vector<1xi8> to vector<1xf8E8M0FNU>
        //   %874 = vector.load %view[%96, %102] : memref<256x24xi8, #gpu.address_space<workgroup>>, vector<1xi8>
        //   %875 = vector.bitcast %872 : vector<1xi8> to vector<1xf8E8M0FNU>
        //   %876 = vector.load %view[%97, %101] : memref<256x24xi8, #gpu.address_space<workgroup>>, vector<1xi8>
        //   %877 = vector.bitcast %874 : vector<1xi8> to vector<1xf8E8M0FNU>
        //   %878 = vector.load %view[%97, %102] : memref<256x24xi8, #gpu.address_space<workgroup>>, vector<1xi8>
        //   %879 = vector.bitcast %876 : vector<1xi8> to vector<1xf8E8M0FNU>
        //   %880 = vector.load %view[%98, %101] : memref<256x24xi8, #gpu.address_space<workgroup>>, vector<1xi8>
        //   %881 = vector.bitcast %878 : vector<1xi8> to vector<1xf8E8M0FNU>
        //   %882 = vector.load %view[%98, %102] : memref<256x24xi8, #gpu.address_space<workgroup>>, vector<1xi8>
        //   %883 = vector.bitcast %880 : vector<1xi8> to vector<1xf8E8M0FNU>
        //   %884 = vector.load %view[%99, %101] : memref<256x24xi8, #gpu.address_space<workgroup>>, vector<1xi8>
        //   %885 = vector.bitcast %882 : vector<1xi8> to vector<1xf8E8M0FNU>
        //   %886 = vector.load %view[%99, %102] : memref<256x24xi8, #gpu.address_space<workgroup>>, vector<1xi8>
        //   %887 = vector.bitcast %884 : vector<1xi8> to vector<1xf8E8M0FNU>
        //   %888 = vector.load %view[%100, %101] : memref<256x24xi8, #gpu.address_space<workgroup>>, vector<1xi8>
        //   %889 = vector.bitcast %886 : vector<1xi8> to vector<1xf8E8M0FNU>
        //   %890 = vector.load %view[%100, %102] : memref<256x24xi8, #gpu.address_space<workgroup>>, vector<1xi8>
        //   %894 = vector.bitcast %890 : vector<1xi8> to vector<1xf8E8M0FNU>
        //   %891 = vector.bitcast %888 : vector<1xi8> to vector<1xf8E8M0FNU>

         //scale A

          %831 = arith.constant dense<1.0> : vector<1xf8E8M0FNU>
          %833 = arith.constant dense<1.0> : vector<1xf8E8M0FNU>
          %835 = arith.constant dense<1.0> : vector<1xf8E8M0FNU>
          %837 = arith.constant dense<1.0> : vector<1xf8E8M0FNU>
          %839 = arith.constant dense<1.0> : vector<1xf8E8M0FNU>
          %841 = arith.constant dense<1.0> : vector<1xf8E8M0FNU>
          %843 = arith.constant dense<1.0> : vector<1xf8E8M0FNU>
          %845 = arith.constant dense<1.0> : vector<1xf8E8M0FNU>
          %847 = arith.constant dense<1.0> : vector<1xf8E8M0FNU>
          %849 = arith.constant dense<1.0> : vector<1xf8E8M0FNU>
          %851 = arith.constant dense<1.0> : vector<1xf8E8M0FNU>
          %853 = arith.constant dense<1.0> : vector<1xf8E8M0FNU>
          %855 = arith.constant dense<1.0> : vector<1xf8E8M0FNU>
          %857 = arith.constant dense<1.0> : vector<1xf8E8M0FNU>
          %859 = arith.constant dense<1.0> : vector<1xf8E8M0FNU>
          %861 = arith.constant dense<1.0> : vector<1xf8E8M0FNU>
          %863 = arith.constant dense<1.0> : vector<1xf8E8M0FNU>
          %865 = arith.constant dense<1.0> : vector<1xf8E8M0FNU>
          %867 = arith.constant dense<1.0> : vector<1xf8E8M0FNU>
          %869 = arith.constant dense<1.0> : vector<1xf8E8M0FNU>
          %871 = arith.constant dense<1.0> : vector<1xf8E8M0FNU>
          %873 = arith.constant dense<1.0> : vector<1xf8E8M0FNU>
          %875 = arith.constant dense<1.0> : vector<1xf8E8M0FNU>
          %877 = arith.constant dense<1.0> : vector<1xf8E8M0FNU>
          %879 = arith.constant dense<1.0> : vector<1xf8E8M0FNU>
          %881 = arith.constant dense<1.0> : vector<1xf8E8M0FNU>
          %883 = arith.constant dense<1.0> : vector<1xf8E8M0FNU>
          %885 = arith.constant dense<1.0> : vector<1xf8E8M0FNU>
          %887 = arith.constant dense<1.0> : vector<1xf8E8M0FNU>
          %889 = arith.constant dense<1.0> : vector<1xf8E8M0FNU>
          %894 = arith.constant dense<1.0> : vector<1xf8E8M0FNU>
          %891 = arith.constant dense<1.0> : vector<1xf8E8M0FNU>


          %892 = arith.addi %38, %826 overflow<nsw> : index
          %893 = vector.load %40[%892] : memref<?xi8, strided<[1], offset: ?>, #amdgpu.address_space<fat_raw_buffer>>, vector<8xi8>
          
          //scale B
        //   %895 = vector.load %view_1[%103, %92] : memref<256x24xi8, #gpu.address_space<workgroup>>, vector<1xi8>
        //   %896 = vector.load %view_1[%103, %93] : memref<256x24xi8, #gpu.address_space<workgroup>>, vector<1xi8>
        //   %897 = vector.bitcast %895 : vector<1xi8> to vector<1xf8E8M0FNU>
        //   %898 = vector.load %view_1[%104, %92] : memref<256x24xi8, #gpu.address_space<workgroup>>, vector<1xi8>
        //   %899 = vector.bitcast %896 : vector<1xi8> to vector<1xf8E8M0FNU>
        //   %900 = vector.load %view_1[%104, %93] : memref<256x24xi8, #gpu.address_space<workgroup>>, vector<1xi8>
        //   %901 = vector.bitcast %898 : vector<1xi8> to vector<1xf8E8M0FNU>
        //   %902 = vector.load %view_1[%105, %92] : memref<256x24xi8, #gpu.address_space<workgroup>>, vector<1xi8>
        //   %903 = vector.bitcast %900 : vector<1xi8> to vector<1xf8E8M0FNU>
        //   %904 = vector.load %view_1[%105, %93] : memref<256x24xi8, #gpu.address_space<workgroup>>, vector<1xi8>
        //   %905 = vector.bitcast %902 : vector<1xi8> to vector<1xf8E8M0FNU>
        //   %906 = vector.load %view_1[%106, %92] : memref<256x24xi8, #gpu.address_space<workgroup>>, vector<1xi8>
        //   %907 = vector.bitcast %904 : vector<1xi8> to vector<1xf8E8M0FNU>
        //   %908 = vector.load %view_1[%106, %93] : memref<256x24xi8, #gpu.address_space<workgroup>>, vector<1xi8>
        //   %909 = vector.bitcast %906 : vector<1xi8> to vector<1xf8E8M0FNU>
        //   %910 = vector.load %view_1[%103, %101] : memref<256x24xi8, #gpu.address_space<workgroup>>, vector<1xi8>
        //   %911 = vector.bitcast %908 : vector<1xi8> to vector<1xf8E8M0FNU>
        //   %912 = vector.load %view_1[%103, %102] : memref<256x24xi8, #gpu.address_space<workgroup>>, vector<1xi8>
        //   %913 = vector.bitcast %910 : vector<1xi8> to vector<1xf8E8M0FNU>
        //   %914 = vector.load %view_1[%104, %101] : memref<256x24xi8, #gpu.address_space<workgroup>>, vector<1xi8>
        //   %915 = vector.bitcast %912 : vector<1xi8> to vector<1xf8E8M0FNU>
        //   %916 = vector.load %view_1[%104, %102] : memref<256x24xi8, #gpu.address_space<workgroup>>, vector<1xi8>
        //   %917 = vector.bitcast %914 : vector<1xi8> to vector<1xf8E8M0FNU>
        //   %918 = vector.load %view_1[%105, %101] : memref<256x24xi8, #gpu.address_space<workgroup>>, vector<1xi8>
        //   %919 = vector.bitcast %916 : vector<1xi8> to vector<1xf8E8M0FNU>
        //   %920 = vector.load %view_1[%105, %102] : memref<256x24xi8, #gpu.address_space<workgroup>>, vector<1xi8>
        //   %921 = vector.bitcast %918 : vector<1xi8> to vector<1xf8E8M0FNU>
        //   %922 = vector.load %view_1[%106, %101] : memref<256x24xi8, #gpu.address_space<workgroup>>, vector<1xi8>
        //   %923 = vector.bitcast %920 : vector<1xi8> to vector<1xf8E8M0FNU>
        //   %924 = vector.load %view_1[%106, %102] : memref<256x24xi8, #gpu.address_space<workgroup>>, vector<1xi8>
        //   %925 = vector.bitcast %922 : vector<1xi8> to vector<1xf8E8M0FNU>
        //   %929 = vector.bitcast %924 : vector<1xi8> to vector<1xf8E8M0FNU>

          //scale B - 1.0
          %897 = arith.constant dense<1.0> : vector<1xf8E8M0FNU>
          %899 = arith.constant dense<1.0> : vector<1xf8E8M0FNU>
          %901 = arith.constant dense<1.0> : vector<1xf8E8M0FNU>
          %903 = arith.constant dense<1.0> : vector<1xf8E8M0FNU>
          %905 = arith.constant dense<1.0> : vector<1xf8E8M0FNU>
          %907 = arith.constant dense<1.0> : vector<1xf8E8M0FNU>
          %909 = arith.constant dense<1.0> : vector<1xf8E8M0FNU>
          %911 = arith.constant dense<1.0> : vector<1xf8E8M0FNU>
          %913 = arith.constant dense<1.0> : vector<1xf8E8M0FNU>
          %915 = arith.constant dense<1.0> : vector<1xf8E8M0FNU>
          %917 = arith.constant dense<1.0> : vector<1xf8E8M0FNU>
          %919 = arith.constant dense<1.0> : vector<1xf8E8M0FNU>
          %921 = arith.constant dense<1.0> : vector<1xf8E8M0FNU>
          %923 = arith.constant dense<1.0> : vector<1xf8E8M0FNU>
          %925 = arith.constant dense<1.0> : vector<1xf8E8M0FNU>
          %929 = arith.constant dense<1.0> : vector<1xf8E8M0FNU>

          %926 = affine.apply #map41()[%arg5, %thread_id_x]
          %927 = arith.addi %57, %926 overflow<nsw> : index
          %928 = vector.load %46[%927] : memref<?xi8, strided<[1], offset: ?>, #amdgpu.address_space<fat_raw_buffer>>, vector<16xi8>
          


          %930 = arith.addi %53, %926 overflow<nsw> : index
          %931 = vector.load %46[%930] : memref<?xi8, strided<[1], offset: ?>, #amdgpu.address_space<fat_raw_buffer>>, vector<16xi8>
          %932 = arith.addi %73, %926 overflow<nsw> : index
          %933 = vector.load %46[%932] : memref<?xi8, strided<[1], offset: ?>, #amdgpu.address_space<fat_raw_buffer>>, vector<16xi8>
          %934 = arith.addi %61, %926 overflow<nsw> : index
          %935 = vector.load %46[%934] : memref<?xi8, strided<[1], offset: ?>, #amdgpu.address_space<fat_raw_buffer>>, vector<16xi8>
          %936 = arith.addi %69, %926 overflow<nsw> : index
          %937 = vector.load %46[%936] : memref<?xi8, strided<[1], offset: ?>, #amdgpu.address_space<fat_raw_buffer>>, vector<16xi8>
          %938 = arith.addi %65, %926 overflow<nsw> : index
          %939 = vector.load %46[%938] : memref<?xi8, strided<[1], offset: ?>, #amdgpu.address_space<fat_raw_buffer>>, vector<16xi8>
          %940 = arith.addi %44, %926 overflow<nsw> : index
          %941 = vector.load %46[%940] : memref<?xi8, strided<[1], offset: ?>, #amdgpu.address_space<fat_raw_buffer>>, vector<16xi8>
          %942 = arith.addi %49, %926 overflow<nsw> : index
          %943 = vector.load %46[%942] : memref<?xi8, strided<[1], offset: ?>, #amdgpu.address_space<fat_raw_buffer>>, vector<16xi8>
          %944 = vector.load %view_0[%91, %107] : memref<256x272xi8, #gpu.address_space<workgroup>>, vector<16xi8>
          %945 = vector.load %view_0[%91, %108] : memref<256x272xi8, #gpu.address_space<workgroup>>, vector<16xi8>
          %946 = vector.bitcast %944 : vector<16xi8> to vector<32xf4E2M1FN>
          %947 = vector.load %view_0[%94, %107] : memref<256x272xi8, #gpu.address_space<workgroup>>, vector<16xi8>
          %948 = vector.bitcast %945 : vector<16xi8> to vector<32xf4E2M1FN>
          %949 = vector.load %view_0[%94, %108] : memref<256x272xi8, #gpu.address_space<workgroup>>, vector<16xi8>
          %950 = vector.bitcast %947 : vector<16xi8> to vector<32xf4E2M1FN>
          %951 = vector.load %view_0[%95, %107] : memref<256x272xi8, #gpu.address_space<workgroup>>, vector<16xi8>
          %952 = vector.bitcast %949 : vector<16xi8> to vector<32xf4E2M1FN>
          %953 = vector.load %view_0[%95, %108] : memref<256x272xi8, #gpu.address_space<workgroup>>, vector<16xi8>
          %954 = vector.bitcast %951 : vector<16xi8> to vector<32xf4E2M1FN>
          %955 = vector.load %view_0[%96, %107] : memref<256x272xi8, #gpu.address_space<workgroup>>, vector<16xi8>
          %956 = vector.bitcast %953 : vector<16xi8> to vector<32xf4E2M1FN>
          %957 = vector.load %view_0[%96, %108] : memref<256x272xi8, #gpu.address_space<workgroup>>, vector<16xi8>
          %958 = vector.bitcast %955 : vector<16xi8> to vector<32xf4E2M1FN>
          %959 = vector.load %view_0[%97, %107] : memref<256x272xi8, #gpu.address_space<workgroup>>, vector<16xi8>
          %960 = vector.bitcast %957 : vector<16xi8> to vector<32xf4E2M1FN>
          %961 = vector.load %view_0[%97, %108] : memref<256x272xi8, #gpu.address_space<workgroup>>, vector<16xi8>
          %962 = vector.bitcast %959 : vector<16xi8> to vector<32xf4E2M1FN>
          %963 = vector.load %view_0[%98, %107] : memref<256x272xi8, #gpu.address_space<workgroup>>, vector<16xi8>
          %964 = vector.bitcast %961 : vector<16xi8> to vector<32xf4E2M1FN>
          %965 = vector.load %view_0[%98, %108] : memref<256x272xi8, #gpu.address_space<workgroup>>, vector<16xi8>
          %966 = vector.bitcast %963 : vector<16xi8> to vector<32xf4E2M1FN>
          %967 = vector.load %view_0[%99, %107] : memref<256x272xi8, #gpu.address_space<workgroup>>, vector<16xi8>
          %968 = vector.bitcast %965 : vector<16xi8> to vector<32xf4E2M1FN>
          %969 = vector.load %view_0[%99, %108] : memref<256x272xi8, #gpu.address_space<workgroup>>, vector<16xi8>
          %970 = vector.bitcast %967 : vector<16xi8> to vector<32xf4E2M1FN>
          %971 = vector.load %view_0[%100, %107] : memref<256x272xi8, #gpu.address_space<workgroup>>, vector<16xi8>
          %972 = vector.bitcast %969 : vector<16xi8> to vector<32xf4E2M1FN>
          %973 = vector.load %view_0[%100, %108] : memref<256x272xi8, #gpu.address_space<workgroup>>, vector<16xi8>
          %974 = vector.bitcast %971 : vector<16xi8> to vector<32xf4E2M1FN>
          %975 = vector.load %view_0[%91, %109] : memref<256x272xi8, #gpu.address_space<workgroup>>, vector<16xi8>
          %976 = vector.bitcast %973 : vector<16xi8> to vector<32xf4E2M1FN>
          %977 = vector.load %view_0[%91, %110] : memref<256x272xi8, #gpu.address_space<workgroup>>, vector<16xi8>
          %978 = vector.bitcast %975 : vector<16xi8> to vector<32xf4E2M1FN>
          %979 = vector.load %view_0[%94, %109] : memref<256x272xi8, #gpu.address_space<workgroup>>, vector<16xi8>
          %980 = vector.bitcast %977 : vector<16xi8> to vector<32xf4E2M1FN>
          %981 = vector.load %view_0[%94, %110] : memref<256x272xi8, #gpu.address_space<workgroup>>, vector<16xi8>
          %982 = vector.bitcast %979 : vector<16xi8> to vector<32xf4E2M1FN>
          %983 = vector.load %view_0[%95, %109] : memref<256x272xi8, #gpu.address_space<workgroup>>, vector<16xi8>
          %984 = vector.bitcast %981 : vector<16xi8> to vector<32xf4E2M1FN>
          %985 = vector.load %view_0[%95, %110] : memref<256x272xi8, #gpu.address_space<workgroup>>, vector<16xi8>
          %986 = vector.bitcast %983 : vector<16xi8> to vector<32xf4E2M1FN>
          %987 = vector.load %view_0[%96, %109] : memref<256x272xi8, #gpu.address_space<workgroup>>, vector<16xi8>
          %988 = vector.bitcast %985 : vector<16xi8> to vector<32xf4E2M1FN>
          %989 = vector.load %view_0[%96, %110] : memref<256x272xi8, #gpu.address_space<workgroup>>, vector<16xi8>
          %990 = vector.bitcast %987 : vector<16xi8> to vector<32xf4E2M1FN>
          %991 = vector.load %view_0[%97, %109] : memref<256x272xi8, #gpu.address_space<workgroup>>, vector<16xi8>
          %992 = vector.bitcast %989 : vector<16xi8> to vector<32xf4E2M1FN>
          %993 = vector.load %view_0[%97, %110] : memref<256x272xi8, #gpu.address_space<workgroup>>, vector<16xi8>
          %994 = vector.bitcast %991 : vector<16xi8> to vector<32xf4E2M1FN>
          %995 = vector.load %view_0[%98, %109] : memref<256x272xi8, #gpu.address_space<workgroup>>, vector<16xi8>
          %996 = vector.bitcast %993 : vector<16xi8> to vector<32xf4E2M1FN>
          %997 = vector.load %view_0[%98, %110] : memref<256x272xi8, #gpu.address_space<workgroup>>, vector<16xi8>
          %998 = vector.bitcast %995 : vector<16xi8> to vector<32xf4E2M1FN>
          %999 = vector.load %view_0[%99, %109] : memref<256x272xi8, #gpu.address_space<workgroup>>, vector<16xi8>
          %1000 = vector.bitcast %997 : vector<16xi8> to vector<32xf4E2M1FN>
          %1001 = vector.load %view_0[%99, %110] : memref<256x272xi8, #gpu.address_space<workgroup>>, vector<16xi8>
          %1002 = vector.bitcast %999 : vector<16xi8> to vector<32xf4E2M1FN>
          %1003 = vector.load %view_0[%100, %109] : memref<256x272xi8, #gpu.address_space<workgroup>>, vector<16xi8>
          %1004 = vector.bitcast %1001 : vector<16xi8> to vector<32xf4E2M1FN>
          %1005 = vector.load %view_0[%100, %110] : memref<256x272xi8, #gpu.address_space<workgroup>>, vector<16xi8>
          %1006 = vector.bitcast %1003 : vector<16xi8> to vector<32xf4E2M1FN>
          %1007 = arith.addi %16, %926 overflow<nsw> : index
          %1008 = vector.load %5[%1007] : memref<?xi8, strided<[1], offset: ?>, #amdgpu.address_space<fat_raw_buffer>>, vector<16xi8>
          %1009 = vector.bitcast %1005 : vector<16xi8> to vector<32xf4E2M1FN>
          %1010 = arith.addi %20, %926 overflow<nsw> : index
          %1011 = vector.load %5[%1010] : memref<?xi8, strided<[1], offset: ?>, #amdgpu.address_space<fat_raw_buffer>>, vector<16xi8>
          %1012 = arith.addi %32, %926 overflow<nsw> : index
          %1013 = vector.load %5[%1012] : memref<?xi8, strided<[1], offset: ?>, #amdgpu.address_space<fat_raw_buffer>>, vector<16xi8>
          %1014 = arith.addi %8, %926 overflow<nsw> : index
          %1015 = vector.load %5[%1014] : memref<?xi8, strided<[1], offset: ?>, #amdgpu.address_space<fat_raw_buffer>>, vector<16xi8>
          %1016 = arith.addi %12, %926 overflow<nsw> : index
          %1017 = vector.load %5[%1016] : memref<?xi8, strided<[1], offset: ?>, #amdgpu.address_space<fat_raw_buffer>>, vector<16xi8>
          %1018 = arith.addi %28, %926 overflow<nsw> : index
          %1019 = vector.load %5[%1018] : memref<?xi8, strided<[1], offset: ?>, #amdgpu.address_space<fat_raw_buffer>>, vector<16xi8>
          %1020 = arith.addi %3, %926 overflow<nsw> : index
          %1021 = vector.load %5[%1020] : memref<?xi8, strided<[1], offset: ?>, #amdgpu.address_space<fat_raw_buffer>>, vector<16xi8>
          %1022 = arith.addi %24, %926 overflow<nsw> : index
          %1023 = vector.load %5[%1022] : memref<?xi8, strided<[1], offset: ?>, #amdgpu.address_space<fat_raw_buffer>>, vector<16xi8>
          %1024 = vector.load %view_2[%103, %107] : memref<256x272xi8, #gpu.address_space<workgroup>>, vector<16xi8>
          %1025 = vector.load %view_2[%103, %108] : memref<256x272xi8, #gpu.address_space<workgroup>>, vector<16xi8>
          %1026 = vector.bitcast %1024 : vector<16xi8> to vector<32xf4E2M1FN>
          %1027 = vector.load %view_2[%104, %107] : memref<256x272xi8, #gpu.address_space<workgroup>>, vector<16xi8>
          %1028 = vector.bitcast %1025 : vector<16xi8> to vector<32xf4E2M1FN>
          %1029 = vector.load %view_2[%104, %108] : memref<256x272xi8, #gpu.address_space<workgroup>>, vector<16xi8>
          %1030 = vector.bitcast %1027 : vector<16xi8> to vector<32xf4E2M1FN>
          %1031 = vector.load %view_2[%105, %107] : memref<256x272xi8, #gpu.address_space<workgroup>>, vector<16xi8>
          %1032 = vector.bitcast %1029 : vector<16xi8> to vector<32xf4E2M1FN>
          %1033 = vector.load %view_2[%105, %108] : memref<256x272xi8, #gpu.address_space<workgroup>>, vector<16xi8>
          %1034 = vector.bitcast %1031 : vector<16xi8> to vector<32xf4E2M1FN>
          %1035 = vector.load %view_2[%106, %107] : memref<256x272xi8, #gpu.address_space<workgroup>>, vector<16xi8>
          %1036 = vector.bitcast %1033 : vector<16xi8> to vector<32xf4E2M1FN>
          %1037 = vector.load %view_2[%106, %108] : memref<256x272xi8, #gpu.address_space<workgroup>>, vector<16xi8>
          %1038 = vector.bitcast %1035 : vector<16xi8> to vector<32xf4E2M1FN>
          %1039 = vector.load %view_2[%103, %109] : memref<256x272xi8, #gpu.address_space<workgroup>>, vector<16xi8>
          %1040 = vector.bitcast %1037 : vector<16xi8> to vector<32xf4E2M1FN>
          %1041 = vector.load %view_2[%103, %110] : memref<256x272xi8, #gpu.address_space<workgroup>>, vector<16xi8>
          %1042 = vector.bitcast %1039 : vector<16xi8> to vector<32xf4E2M1FN>
          %1043 = vector.load %view_2[%104, %109] : memref<256x272xi8, #gpu.address_space<workgroup>>, vector<16xi8>
          %1044 = vector.bitcast %1041 : vector<16xi8> to vector<32xf4E2M1FN>
          %1045 = vector.load %view_2[%104, %110] : memref<256x272xi8, #gpu.address_space<workgroup>>, vector<16xi8>
          %1046 = vector.bitcast %1043 : vector<16xi8> to vector<32xf4E2M1FN>
          %1047 = vector.load %view_2[%105, %109] : memref<256x272xi8, #gpu.address_space<workgroup>>, vector<16xi8>
          %1048 = vector.bitcast %1045 : vector<16xi8> to vector<32xf4E2M1FN>
          %1049 = vector.load %view_2[%105, %110] : memref<256x272xi8, #gpu.address_space<workgroup>>, vector<16xi8>
          %1050 = vector.bitcast %1047 : vector<16xi8> to vector<32xf4E2M1FN>
          %1051 = vector.load %view_2[%106, %109] : memref<256x272xi8, #gpu.address_space<workgroup>>, vector<16xi8>
          %1052 = vector.bitcast %1049 : vector<16xi8> to vector<32xf4E2M1FN>
          %1053 = vector.load %view_2[%106, %110] : memref<256x272xi8, #gpu.address_space<workgroup>>, vector<16xi8>
          %1054 = vector.bitcast %1051 : vector<16xi8> to vector<32xf4E2M1FN>
          %1055 = vector.bitcast %1053 : vector<16xi8> to vector<32xf4E2M1FN>
          %1056 = vector.extractelement %897[%c0 : index] : vector<1xf8E8M0FNU>
          %1057 = vector.extractelement %831[%c0 : index] : vector<1xf8E8M0FNU>
          %1058 = amdgpu.scaled_mfma(%1056[0] * %1026) * (%1057[0] * %946) + %arg6 {k = 128 : i32, m = 16 : i32, n = 16 : i32} : f8E8M0FNU, vector<32xf4E2M1FN>, f8E8M0FNU, vector<32xf4E2M1FN>, vector<4xf32>
          %1059 = vector.extractelement %899[%c0 : index] : vector<1xf8E8M0FNU>
          %1060 = vector.extractelement %833[%c0 : index] : vector<1xf8E8M0FNU>
          %1061 = amdgpu.scaled_mfma(%1059[0] * %1028) * (%1060[0] * %948) + %1058 {k = 128 : i32, m = 16 : i32, n = 16 : i32} : f8E8M0FNU, vector<32xf4E2M1FN>, f8E8M0FNU, vector<32xf4E2M1FN>, vector<4xf32>
          %1062 = vector.extractelement %835[%c0 : index] : vector<1xf8E8M0FNU>
          %1063 = amdgpu.scaled_mfma(%1056[0] * %1026) * (%1062[0] * %950) + %arg7 {k = 128 : i32, m = 16 : i32, n = 16 : i32} : f8E8M0FNU, vector<32xf4E2M1FN>, f8E8M0FNU, vector<32xf4E2M1FN>, vector<4xf32>
          %1064 = vector.extractelement %837[%c0 : index] : vector<1xf8E8M0FNU>
          %1065 = amdgpu.scaled_mfma(%1059[0] * %1028) * (%1064[0] * %952) + %1063 {k = 128 : i32, m = 16 : i32, n = 16 : i32} : f8E8M0FNU, vector<32xf4E2M1FN>, f8E8M0FNU, vector<32xf4E2M1FN>, vector<4xf32>
          %1066 = vector.extractelement %839[%c0 : index] : vector<1xf8E8M0FNU>
          %1067 = amdgpu.scaled_mfma(%1056[0] * %1026) * (%1066[0] * %954) + %arg8 {k = 128 : i32, m = 16 : i32, n = 16 : i32} : f8E8M0FNU, vector<32xf4E2M1FN>, f8E8M0FNU, vector<32xf4E2M1FN>, vector<4xf32>
          %1068 = vector.extractelement %841[%c0 : index] : vector<1xf8E8M0FNU>
          %1069 = amdgpu.scaled_mfma(%1059[0] * %1028) * (%1068[0] * %956) + %1067 {k = 128 : i32, m = 16 : i32, n = 16 : i32} : f8E8M0FNU, vector<32xf4E2M1FN>, f8E8M0FNU, vector<32xf4E2M1FN>, vector<4xf32>
          %1070 = vector.extractelement %843[%c0 : index] : vector<1xf8E8M0FNU>
          %1071 = amdgpu.scaled_mfma(%1056[0] * %1026) * (%1070[0] * %958) + %arg9 {k = 128 : i32, m = 16 : i32, n = 16 : i32} : f8E8M0FNU, vector<32xf4E2M1FN>, f8E8M0FNU, vector<32xf4E2M1FN>, vector<4xf32>
          %1072 = vector.extractelement %845[%c0 : index] : vector<1xf8E8M0FNU>
          %1073 = amdgpu.scaled_mfma(%1059[0] * %1028) * (%1072[0] * %960) + %1071 {k = 128 : i32, m = 16 : i32, n = 16 : i32} : f8E8M0FNU, vector<32xf4E2M1FN>, f8E8M0FNU, vector<32xf4E2M1FN>, vector<4xf32>
          %1074 = vector.extractelement %847[%c0 : index] : vector<1xf8E8M0FNU>
          %1075 = amdgpu.scaled_mfma(%1056[0] * %1026) * (%1074[0] * %962) + %arg10 {k = 128 : i32, m = 16 : i32, n = 16 : i32} : f8E8M0FNU, vector<32xf4E2M1FN>, f8E8M0FNU, vector<32xf4E2M1FN>, vector<4xf32>
          %1076 = vector.extractelement %849[%c0 : index] : vector<1xf8E8M0FNU>
          %1077 = amdgpu.scaled_mfma(%1059[0] * %1028) * (%1076[0] * %964) + %1075 {k = 128 : i32, m = 16 : i32, n = 16 : i32} : f8E8M0FNU, vector<32xf4E2M1FN>, f8E8M0FNU, vector<32xf4E2M1FN>, vector<4xf32>
          %1078 = vector.extractelement %851[%c0 : index] : vector<1xf8E8M0FNU>
          %1079 = amdgpu.scaled_mfma(%1056[0] * %1026) * (%1078[0] * %966) + %arg11 {k = 128 : i32, m = 16 : i32, n = 16 : i32} : f8E8M0FNU, vector<32xf4E2M1FN>, f8E8M0FNU, vector<32xf4E2M1FN>, vector<4xf32>
          %1080 = vector.extractelement %853[%c0 : index] : vector<1xf8E8M0FNU>
          %1081 = amdgpu.scaled_mfma(%1059[0] * %1028) * (%1080[0] * %968) + %1079 {k = 128 : i32, m = 16 : i32, n = 16 : i32} : f8E8M0FNU, vector<32xf4E2M1FN>, f8E8M0FNU, vector<32xf4E2M1FN>, vector<4xf32>
          %1082 = vector.extractelement %855[%c0 : index] : vector<1xf8E8M0FNU>
          %1083 = amdgpu.scaled_mfma(%1056[0] * %1026) * (%1082[0] * %970) + %arg12 {k = 128 : i32, m = 16 : i32, n = 16 : i32} : f8E8M0FNU, vector<32xf4E2M1FN>, f8E8M0FNU, vector<32xf4E2M1FN>, vector<4xf32>
          %1084 = vector.extractelement %857[%c0 : index] : vector<1xf8E8M0FNU>
          %1085 = amdgpu.scaled_mfma(%1059[0] * %1028) * (%1084[0] * %972) + %1083 {k = 128 : i32, m = 16 : i32, n = 16 : i32} : f8E8M0FNU, vector<32xf4E2M1FN>, f8E8M0FNU, vector<32xf4E2M1FN>, vector<4xf32>
          %1086 = vector.extractelement %859[%c0 : index] : vector<1xf8E8M0FNU>
          %1087 = amdgpu.scaled_mfma(%1056[0] * %1026) * (%1086[0] * %974) + %arg13 {k = 128 : i32, m = 16 : i32, n = 16 : i32} : f8E8M0FNU, vector<32xf4E2M1FN>, f8E8M0FNU, vector<32xf4E2M1FN>, vector<4xf32>
          %1088 = vector.extractelement %861[%c0 : index] : vector<1xf8E8M0FNU>
          %1089 = amdgpu.scaled_mfma(%1059[0] * %1028) * (%1088[0] * %976) + %1087 {k = 128 : i32, m = 16 : i32, n = 16 : i32} : f8E8M0FNU, vector<32xf4E2M1FN>, f8E8M0FNU, vector<32xf4E2M1FN>, vector<4xf32>
          %1090 = vector.extractelement %901[%c0 : index] : vector<1xf8E8M0FNU>
          %1091 = amdgpu.scaled_mfma(%1090[0] * %1030) * (%1057[0] * %946) + %arg14 {k = 128 : i32, m = 16 : i32, n = 16 : i32} : f8E8M0FNU, vector<32xf4E2M1FN>, f8E8M0FNU, vector<32xf4E2M1FN>, vector<4xf32>
          %1092 = vector.extractelement %903[%c0 : index] : vector<1xf8E8M0FNU>
          %1093 = amdgpu.scaled_mfma(%1092[0] * %1032) * (%1060[0] * %948) + %1091 {k = 128 : i32, m = 16 : i32, n = 16 : i32} : f8E8M0FNU, vector<32xf4E2M1FN>, f8E8M0FNU, vector<32xf4E2M1FN>, vector<4xf32>
          %1094 = amdgpu.scaled_mfma(%1090[0] * %1030) * (%1062[0] * %950) + %arg15 {k = 128 : i32, m = 16 : i32, n = 16 : i32} : f8E8M0FNU, vector<32xf4E2M1FN>, f8E8M0FNU, vector<32xf4E2M1FN>, vector<4xf32>
          %1095 = amdgpu.scaled_mfma(%1092[0] * %1032) * (%1064[0] * %952) + %1094 {k = 128 : i32, m = 16 : i32, n = 16 : i32} : f8E8M0FNU, vector<32xf4E2M1FN>, f8E8M0FNU, vector<32xf4E2M1FN>, vector<4xf32>
          %1096 = amdgpu.scaled_mfma(%1090[0] * %1030) * (%1066[0] * %954) + %arg16 {k = 128 : i32, m = 16 : i32, n = 16 : i32} : f8E8M0FNU, vector<32xf4E2M1FN>, f8E8M0FNU, vector<32xf4E2M1FN>, vector<4xf32>
          %1097 = amdgpu.scaled_mfma(%1092[0] * %1032) * (%1068[0] * %956) + %1096 {k = 128 : i32, m = 16 : i32, n = 16 : i32} : f8E8M0FNU, vector<32xf4E2M1FN>, f8E8M0FNU, vector<32xf4E2M1FN>, vector<4xf32>
          %1098 = amdgpu.scaled_mfma(%1090[0] * %1030) * (%1070[0] * %958) + %arg17 {k = 128 : i32, m = 16 : i32, n = 16 : i32} : f8E8M0FNU, vector<32xf4E2M1FN>, f8E8M0FNU, vector<32xf4E2M1FN>, vector<4xf32>
          %1099 = amdgpu.scaled_mfma(%1092[0] * %1032) * (%1072[0] * %960) + %1098 {k = 128 : i32, m = 16 : i32, n = 16 : i32} : f8E8M0FNU, vector<32xf4E2M1FN>, f8E8M0FNU, vector<32xf4E2M1FN>, vector<4xf32>
          %1100 = amdgpu.scaled_mfma(%1090[0] * %1030) * (%1074[0] * %962) + %arg18 {k = 128 : i32, m = 16 : i32, n = 16 : i32} : f8E8M0FNU, vector<32xf4E2M1FN>, f8E8M0FNU, vector<32xf4E2M1FN>, vector<4xf32>
          %1101 = amdgpu.scaled_mfma(%1092[0] * %1032) * (%1076[0] * %964) + %1100 {k = 128 : i32, m = 16 : i32, n = 16 : i32} : f8E8M0FNU, vector<32xf4E2M1FN>, f8E8M0FNU, vector<32xf4E2M1FN>, vector<4xf32>
          %1102 = amdgpu.scaled_mfma(%1090[0] * %1030) * (%1078[0] * %966) + %arg19 {k = 128 : i32, m = 16 : i32, n = 16 : i32} : f8E8M0FNU, vector<32xf4E2M1FN>, f8E8M0FNU, vector<32xf4E2M1FN>, vector<4xf32>
          %1103 = amdgpu.scaled_mfma(%1092[0] * %1032) * (%1080[0] * %968) + %1102 {k = 128 : i32, m = 16 : i32, n = 16 : i32} : f8E8M0FNU, vector<32xf4E2M1FN>, f8E8M0FNU, vector<32xf4E2M1FN>, vector<4xf32>
          %1104 = amdgpu.scaled_mfma(%1090[0] * %1030) * (%1082[0] * %970) + %arg20 {k = 128 : i32, m = 16 : i32, n = 16 : i32} : f8E8M0FNU, vector<32xf4E2M1FN>, f8E8M0FNU, vector<32xf4E2M1FN>, vector<4xf32>
          %1105 = amdgpu.scaled_mfma(%1092[0] * %1032) * (%1084[0] * %972) + %1104 {k = 128 : i32, m = 16 : i32, n = 16 : i32} : f8E8M0FNU, vector<32xf4E2M1FN>, f8E8M0FNU, vector<32xf4E2M1FN>, vector<4xf32>
          %1106 = amdgpu.scaled_mfma(%1090[0] * %1030) * (%1086[0] * %974) + %arg21 {k = 128 : i32, m = 16 : i32, n = 16 : i32} : f8E8M0FNU, vector<32xf4E2M1FN>, f8E8M0FNU, vector<32xf4E2M1FN>, vector<4xf32>
          %1107 = amdgpu.scaled_mfma(%1092[0] * %1032) * (%1088[0] * %976) + %1106 {k = 128 : i32, m = 16 : i32, n = 16 : i32} : f8E8M0FNU, vector<32xf4E2M1FN>, f8E8M0FNU, vector<32xf4E2M1FN>, vector<4xf32>
          %1108 = vector.extractelement %905[%c0 : index] : vector<1xf8E8M0FNU>
          %1109 = amdgpu.scaled_mfma(%1108[0] * %1034) * (%1057[0] * %946) + %arg22 {k = 128 : i32, m = 16 : i32, n = 16 : i32} : f8E8M0FNU, vector<32xf4E2M1FN>, f8E8M0FNU, vector<32xf4E2M1FN>, vector<4xf32>
          %1110 = vector.extractelement %907[%c0 : index] : vector<1xf8E8M0FNU>
          %1111 = amdgpu.scaled_mfma(%1110[0] * %1036) * (%1060[0] * %948) + %1109 {k = 128 : i32, m = 16 : i32, n = 16 : i32} : f8E8M0FNU, vector<32xf4E2M1FN>, f8E8M0FNU, vector<32xf4E2M1FN>, vector<4xf32>
          %1112 = amdgpu.scaled_mfma(%1108[0] * %1034) * (%1062[0] * %950) + %arg23 {k = 128 : i32, m = 16 : i32, n = 16 : i32} : f8E8M0FNU, vector<32xf4E2M1FN>, f8E8M0FNU, vector<32xf4E2M1FN>, vector<4xf32>
          %1113 = amdgpu.scaled_mfma(%1110[0] * %1036) * (%1064[0] * %952) + %1112 {k = 128 : i32, m = 16 : i32, n = 16 : i32} : f8E8M0FNU, vector<32xf4E2M1FN>, f8E8M0FNU, vector<32xf4E2M1FN>, vector<4xf32>
          %1114 = amdgpu.scaled_mfma(%1108[0] * %1034) * (%1066[0] * %954) + %arg24 {k = 128 : i32, m = 16 : i32, n = 16 : i32} : f8E8M0FNU, vector<32xf4E2M1FN>, f8E8M0FNU, vector<32xf4E2M1FN>, vector<4xf32>
          %1115 = amdgpu.scaled_mfma(%1110[0] * %1036) * (%1068[0] * %956) + %1114 {k = 128 : i32, m = 16 : i32, n = 16 : i32} : f8E8M0FNU, vector<32xf4E2M1FN>, f8E8M0FNU, vector<32xf4E2M1FN>, vector<4xf32>
          %1116 = amdgpu.scaled_mfma(%1108[0] * %1034) * (%1070[0] * %958) + %arg25 {k = 128 : i32, m = 16 : i32, n = 16 : i32} : f8E8M0FNU, vector<32xf4E2M1FN>, f8E8M0FNU, vector<32xf4E2M1FN>, vector<4xf32>
          %1117 = amdgpu.scaled_mfma(%1110[0] * %1036) * (%1072[0] * %960) + %1116 {k = 128 : i32, m = 16 : i32, n = 16 : i32} : f8E8M0FNU, vector<32xf4E2M1FN>, f8E8M0FNU, vector<32xf4E2M1FN>, vector<4xf32>
          %1118 = amdgpu.scaled_mfma(%1108[0] * %1034) * (%1074[0] * %962) + %arg26 {k = 128 : i32, m = 16 : i32, n = 16 : i32} : f8E8M0FNU, vector<32xf4E2M1FN>, f8E8M0FNU, vector<32xf4E2M1FN>, vector<4xf32>
          %1119 = amdgpu.scaled_mfma(%1110[0] * %1036) * (%1076[0] * %964) + %1118 {k = 128 : i32, m = 16 : i32, n = 16 : i32} : f8E8M0FNU, vector<32xf4E2M1FN>, f8E8M0FNU, vector<32xf4E2M1FN>, vector<4xf32>
          %1120 = amdgpu.scaled_mfma(%1108[0] * %1034) * (%1078[0] * %966) + %arg27 {k = 128 : i32, m = 16 : i32, n = 16 : i32} : f8E8M0FNU, vector<32xf4E2M1FN>, f8E8M0FNU, vector<32xf4E2M1FN>, vector<4xf32>
          %1121 = amdgpu.scaled_mfma(%1110[0] * %1036) * (%1080[0] * %968) + %1120 {k = 128 : i32, m = 16 : i32, n = 16 : i32} : f8E8M0FNU, vector<32xf4E2M1FN>, f8E8M0FNU, vector<32xf4E2M1FN>, vector<4xf32>
          %1122 = amdgpu.scaled_mfma(%1108[0] * %1034) * (%1082[0] * %970) + %arg28 {k = 128 : i32, m = 16 : i32, n = 16 : i32} : f8E8M0FNU, vector<32xf4E2M1FN>, f8E8M0FNU, vector<32xf4E2M1FN>, vector<4xf32>
          %1123 = amdgpu.scaled_mfma(%1110[0] * %1036) * (%1084[0] * %972) + %1122 {k = 128 : i32, m = 16 : i32, n = 16 : i32} : f8E8M0FNU, vector<32xf4E2M1FN>, f8E8M0FNU, vector<32xf4E2M1FN>, vector<4xf32>
          %1124 = amdgpu.scaled_mfma(%1108[0] * %1034) * (%1086[0] * %974) + %arg29 {k = 128 : i32, m = 16 : i32, n = 16 : i32} : f8E8M0FNU, vector<32xf4E2M1FN>, f8E8M0FNU, vector<32xf4E2M1FN>, vector<4xf32>
          %1125 = amdgpu.scaled_mfma(%1110[0] * %1036) * (%1088[0] * %976) + %1124 {k = 128 : i32, m = 16 : i32, n = 16 : i32} : f8E8M0FNU, vector<32xf4E2M1FN>, f8E8M0FNU, vector<32xf4E2M1FN>, vector<4xf32>
          %1126 = vector.extractelement %909[%c0 : index] : vector<1xf8E8M0FNU>
          %1127 = amdgpu.scaled_mfma(%1126[0] * %1038) * (%1057[0] * %946) + %arg30 {k = 128 : i32, m = 16 : i32, n = 16 : i32} : f8E8M0FNU, vector<32xf4E2M1FN>, f8E8M0FNU, vector<32xf4E2M1FN>, vector<4xf32>
          %1128 = vector.extractelement %911[%c0 : index] : vector<1xf8E8M0FNU>
          %1129 = amdgpu.scaled_mfma(%1128[0] * %1040) * (%1060[0] * %948) + %1127 {k = 128 : i32, m = 16 : i32, n = 16 : i32} : f8E8M0FNU, vector<32xf4E2M1FN>, f8E8M0FNU, vector<32xf4E2M1FN>, vector<4xf32>
          %1130 = amdgpu.scaled_mfma(%1126[0] * %1038) * (%1062[0] * %950) + %arg31 {k = 128 : i32, m = 16 : i32, n = 16 : i32} : f8E8M0FNU, vector<32xf4E2M1FN>, f8E8M0FNU, vector<32xf4E2M1FN>, vector<4xf32>
          %1131 = amdgpu.scaled_mfma(%1128[0] * %1040) * (%1064[0] * %952) + %1130 {k = 128 : i32, m = 16 : i32, n = 16 : i32} : f8E8M0FNU, vector<32xf4E2M1FN>, f8E8M0FNU, vector<32xf4E2M1FN>, vector<4xf32>
          %1132 = amdgpu.scaled_mfma(%1126[0] * %1038) * (%1066[0] * %954) + %arg32 {k = 128 : i32, m = 16 : i32, n = 16 : i32} : f8E8M0FNU, vector<32xf4E2M1FN>, f8E8M0FNU, vector<32xf4E2M1FN>, vector<4xf32>
          %1133 = amdgpu.scaled_mfma(%1128[0] * %1040) * (%1068[0] * %956) + %1132 {k = 128 : i32, m = 16 : i32, n = 16 : i32} : f8E8M0FNU, vector<32xf4E2M1FN>, f8E8M0FNU, vector<32xf4E2M1FN>, vector<4xf32>
          %1134 = amdgpu.scaled_mfma(%1126[0] * %1038) * (%1070[0] * %958) + %arg33 {k = 128 : i32, m = 16 : i32, n = 16 : i32} : f8E8M0FNU, vector<32xf4E2M1FN>, f8E8M0FNU, vector<32xf4E2M1FN>, vector<4xf32>
          %1135 = amdgpu.scaled_mfma(%1128[0] * %1040) * (%1072[0] * %960) + %1134 {k = 128 : i32, m = 16 : i32, n = 16 : i32} : f8E8M0FNU, vector<32xf4E2M1FN>, f8E8M0FNU, vector<32xf4E2M1FN>, vector<4xf32>
          %1136 = amdgpu.scaled_mfma(%1126[0] * %1038) * (%1074[0] * %962) + %arg34 {k = 128 : i32, m = 16 : i32, n = 16 : i32} : f8E8M0FNU, vector<32xf4E2M1FN>, f8E8M0FNU, vector<32xf4E2M1FN>, vector<4xf32>
          %1137 = amdgpu.scaled_mfma(%1128[0] * %1040) * (%1076[0] * %964) + %1136 {k = 128 : i32, m = 16 : i32, n = 16 : i32} : f8E8M0FNU, vector<32xf4E2M1FN>, f8E8M0FNU, vector<32xf4E2M1FN>, vector<4xf32>
          %1138 = amdgpu.scaled_mfma(%1126[0] * %1038) * (%1078[0] * %966) + %arg35 {k = 128 : i32, m = 16 : i32, n = 16 : i32} : f8E8M0FNU, vector<32xf4E2M1FN>, f8E8M0FNU, vector<32xf4E2M1FN>, vector<4xf32>
          %1139 = amdgpu.scaled_mfma(%1128[0] * %1040) * (%1080[0] * %968) + %1138 {k = 128 : i32, m = 16 : i32, n = 16 : i32} : f8E8M0FNU, vector<32xf4E2M1FN>, f8E8M0FNU, vector<32xf4E2M1FN>, vector<4xf32>
          %1140 = amdgpu.scaled_mfma(%1126[0] * %1038) * (%1082[0] * %970) + %arg36 {k = 128 : i32, m = 16 : i32, n = 16 : i32} : f8E8M0FNU, vector<32xf4E2M1FN>, f8E8M0FNU, vector<32xf4E2M1FN>, vector<4xf32>
          %1141 = amdgpu.scaled_mfma(%1128[0] * %1040) * (%1084[0] * %972) + %1140 {k = 128 : i32, m = 16 : i32, n = 16 : i32} : f8E8M0FNU, vector<32xf4E2M1FN>, f8E8M0FNU, vector<32xf4E2M1FN>, vector<4xf32>
          %1142 = amdgpu.scaled_mfma(%1126[0] * %1038) * (%1086[0] * %974) + %arg37 {k = 128 : i32, m = 16 : i32, n = 16 : i32} : f8E8M0FNU, vector<32xf4E2M1FN>, f8E8M0FNU, vector<32xf4E2M1FN>, vector<4xf32>
          %1143 = amdgpu.scaled_mfma(%1128[0] * %1040) * (%1088[0] * %976) + %1142 {k = 128 : i32, m = 16 : i32, n = 16 : i32} : f8E8M0FNU, vector<32xf4E2M1FN>, f8E8M0FNU, vector<32xf4E2M1FN>, vector<4xf32>
          %1144 = vector.extractelement %913[%c0 : index] : vector<1xf8E8M0FNU>
          %1145 = vector.extractelement %863[%c0 : index] : vector<1xf8E8M0FNU>
          %1146 = amdgpu.scaled_mfma(%1144[0] * %1042) * (%1145[0] * %978) + %1061 {k = 128 : i32, m = 16 : i32, n = 16 : i32} : f8E8M0FNU, vector<32xf4E2M1FN>, f8E8M0FNU, vector<32xf4E2M1FN>, vector<4xf32>
          %1147 = vector.extractelement %915[%c0 : index] : vector<1xf8E8M0FNU>
          %1148 = vector.extractelement %865[%c0 : index] : vector<1xf8E8M0FNU>
          %1149 = amdgpu.scaled_mfma(%1147[0] * %1044) * (%1148[0] * %980) + %1146 {k = 128 : i32, m = 16 : i32, n = 16 : i32} : f8E8M0FNU, vector<32xf4E2M1FN>, f8E8M0FNU, vector<32xf4E2M1FN>, vector<4xf32>
          %1150 = vector.extractelement %867[%c0 : index] : vector<1xf8E8M0FNU>
          %1151 = amdgpu.scaled_mfma(%1144[0] * %1042) * (%1150[0] * %982) + %1065 {k = 128 : i32, m = 16 : i32, n = 16 : i32} : f8E8M0FNU, vector<32xf4E2M1FN>, f8E8M0FNU, vector<32xf4E2M1FN>, vector<4xf32>
          %1152 = vector.extractelement %869[%c0 : index] : vector<1xf8E8M0FNU>
          %1153 = amdgpu.scaled_mfma(%1147[0] * %1044) * (%1152[0] * %984) + %1151 {k = 128 : i32, m = 16 : i32, n = 16 : i32} : f8E8M0FNU, vector<32xf4E2M1FN>, f8E8M0FNU, vector<32xf4E2M1FN>, vector<4xf32>
          %1154 = vector.extractelement %871[%c0 : index] : vector<1xf8E8M0FNU>
          %1155 = amdgpu.scaled_mfma(%1144[0] * %1042) * (%1154[0] * %986) + %1069 {k = 128 : i32, m = 16 : i32, n = 16 : i32} : f8E8M0FNU, vector<32xf4E2M1FN>, f8E8M0FNU, vector<32xf4E2M1FN>, vector<4xf32>
          %1156 = vector.extractelement %873[%c0 : index] : vector<1xf8E8M0FNU>
          %1157 = amdgpu.scaled_mfma(%1147[0] * %1044) * (%1156[0] * %988) + %1155 {k = 128 : i32, m = 16 : i32, n = 16 : i32} : f8E8M0FNU, vector<32xf4E2M1FN>, f8E8M0FNU, vector<32xf4E2M1FN>, vector<4xf32>
          %1158 = vector.extractelement %875[%c0 : index] : vector<1xf8E8M0FNU>
          %1159 = amdgpu.scaled_mfma(%1144[0] * %1042) * (%1158[0] * %990) + %1073 {k = 128 : i32, m = 16 : i32, n = 16 : i32} : f8E8M0FNU, vector<32xf4E2M1FN>, f8E8M0FNU, vector<32xf4E2M1FN>, vector<4xf32>
          %1160 = vector.extractelement %877[%c0 : index] : vector<1xf8E8M0FNU>
          %1161 = amdgpu.scaled_mfma(%1147[0] * %1044) * (%1160[0] * %992) + %1159 {k = 128 : i32, m = 16 : i32, n = 16 : i32} : f8E8M0FNU, vector<32xf4E2M1FN>, f8E8M0FNU, vector<32xf4E2M1FN>, vector<4xf32>
          %1162 = vector.extractelement %879[%c0 : index] : vector<1xf8E8M0FNU>
          %1163 = amdgpu.scaled_mfma(%1144[0] * %1042) * (%1162[0] * %994) + %1077 {k = 128 : i32, m = 16 : i32, n = 16 : i32} : f8E8M0FNU, vector<32xf4E2M1FN>, f8E8M0FNU, vector<32xf4E2M1FN>, vector<4xf32>
          %1164 = vector.extractelement %881[%c0 : index] : vector<1xf8E8M0FNU>
          %1165 = amdgpu.scaled_mfma(%1147[0] * %1044) * (%1164[0] * %996) + %1163 {k = 128 : i32, m = 16 : i32, n = 16 : i32} : f8E8M0FNU, vector<32xf4E2M1FN>, f8E8M0FNU, vector<32xf4E2M1FN>, vector<4xf32>
          %1166 = vector.extractelement %883[%c0 : index] : vector<1xf8E8M0FNU>
          %1167 = amdgpu.scaled_mfma(%1144[0] * %1042) * (%1166[0] * %998) + %1081 {k = 128 : i32, m = 16 : i32, n = 16 : i32} : f8E8M0FNU, vector<32xf4E2M1FN>, f8E8M0FNU, vector<32xf4E2M1FN>, vector<4xf32>
          %1168 = vector.extractelement %885[%c0 : index] : vector<1xf8E8M0FNU>
          %1169 = amdgpu.scaled_mfma(%1147[0] * %1044) * (%1168[0] * %1000) + %1167 {k = 128 : i32, m = 16 : i32, n = 16 : i32} : f8E8M0FNU, vector<32xf4E2M1FN>, f8E8M0FNU, vector<32xf4E2M1FN>, vector<4xf32>
          %1170 = vector.extractelement %887[%c0 : index] : vector<1xf8E8M0FNU>
          %1171 = amdgpu.scaled_mfma(%1144[0] * %1042) * (%1170[0] * %1002) + %1085 {k = 128 : i32, m = 16 : i32, n = 16 : i32} : f8E8M0FNU, vector<32xf4E2M1FN>, f8E8M0FNU, vector<32xf4E2M1FN>, vector<4xf32>
          %1172 = vector.extractelement %889[%c0 : index] : vector<1xf8E8M0FNU>
          %1173 = amdgpu.scaled_mfma(%1147[0] * %1044) * (%1172[0] * %1004) + %1171 {k = 128 : i32, m = 16 : i32, n = 16 : i32} : f8E8M0FNU, vector<32xf4E2M1FN>, f8E8M0FNU, vector<32xf4E2M1FN>, vector<4xf32>
          %1174 = vector.extractelement %891[%c0 : index] : vector<1xf8E8M0FNU>
          %1175 = amdgpu.scaled_mfma(%1144[0] * %1042) * (%1174[0] * %1006) + %1089 {k = 128 : i32, m = 16 : i32, n = 16 : i32} : f8E8M0FNU, vector<32xf4E2M1FN>, f8E8M0FNU, vector<32xf4E2M1FN>, vector<4xf32>
          %1176 = vector.extractelement %894[%c0 : index] : vector<1xf8E8M0FNU>
          %1177 = amdgpu.scaled_mfma(%1147[0] * %1044) * (%1176[0] * %1009) + %1175 {k = 128 : i32, m = 16 : i32, n = 16 : i32} : f8E8M0FNU, vector<32xf4E2M1FN>, f8E8M0FNU, vector<32xf4E2M1FN>, vector<4xf32>
          %1178 = vector.extractelement %917[%c0 : index] : vector<1xf8E8M0FNU>
          %1179 = amdgpu.scaled_mfma(%1178[0] * %1046) * (%1145[0] * %978) + %1093 {k = 128 : i32, m = 16 : i32, n = 16 : i32} : f8E8M0FNU, vector<32xf4E2M1FN>, f8E8M0FNU, vector<32xf4E2M1FN>, vector<4xf32>
          %1180 = vector.extractelement %919[%c0 : index] : vector<1xf8E8M0FNU>
          %1181 = amdgpu.scaled_mfma(%1180[0] * %1048) * (%1148[0] * %980) + %1179 {k = 128 : i32, m = 16 : i32, n = 16 : i32} : f8E8M0FNU, vector<32xf4E2M1FN>, f8E8M0FNU, vector<32xf4E2M1FN>, vector<4xf32>
          %1182 = amdgpu.scaled_mfma(%1178[0] * %1046) * (%1150[0] * %982) + %1095 {k = 128 : i32, m = 16 : i32, n = 16 : i32} : f8E8M0FNU, vector<32xf4E2M1FN>, f8E8M0FNU, vector<32xf4E2M1FN>, vector<4xf32>
          %1183 = amdgpu.scaled_mfma(%1180[0] * %1048) * (%1152[0] * %984) + %1182 {k = 128 : i32, m = 16 : i32, n = 16 : i32} : f8E8M0FNU, vector<32xf4E2M1FN>, f8E8M0FNU, vector<32xf4E2M1FN>, vector<4xf32>
          %1184 = amdgpu.scaled_mfma(%1178[0] * %1046) * (%1154[0] * %986) + %1097 {k = 128 : i32, m = 16 : i32, n = 16 : i32} : f8E8M0FNU, vector<32xf4E2M1FN>, f8E8M0FNU, vector<32xf4E2M1FN>, vector<4xf32>
          %1185 = amdgpu.scaled_mfma(%1180[0] * %1048) * (%1156[0] * %988) + %1184 {k = 128 : i32, m = 16 : i32, n = 16 : i32} : f8E8M0FNU, vector<32xf4E2M1FN>, f8E8M0FNU, vector<32xf4E2M1FN>, vector<4xf32>
          %1186 = amdgpu.scaled_mfma(%1178[0] * %1046) * (%1158[0] * %990) + %1099 {k = 128 : i32, m = 16 : i32, n = 16 : i32} : f8E8M0FNU, vector<32xf4E2M1FN>, f8E8M0FNU, vector<32xf4E2M1FN>, vector<4xf32>
          %1187 = amdgpu.scaled_mfma(%1180[0] * %1048) * (%1160[0] * %992) + %1186 {k = 128 : i32, m = 16 : i32, n = 16 : i32} : f8E8M0FNU, vector<32xf4E2M1FN>, f8E8M0FNU, vector<32xf4E2M1FN>, vector<4xf32>
          %1188 = amdgpu.scaled_mfma(%1178[0] * %1046) * (%1162[0] * %994) + %1101 {k = 128 : i32, m = 16 : i32, n = 16 : i32} : f8E8M0FNU, vector<32xf4E2M1FN>, f8E8M0FNU, vector<32xf4E2M1FN>, vector<4xf32>
          %1189 = amdgpu.scaled_mfma(%1180[0] * %1048) * (%1164[0] * %996) + %1188 {k = 128 : i32, m = 16 : i32, n = 16 : i32} : f8E8M0FNU, vector<32xf4E2M1FN>, f8E8M0FNU, vector<32xf4E2M1FN>, vector<4xf32>
          %1190 = amdgpu.scaled_mfma(%1178[0] * %1046) * (%1166[0] * %998) + %1103 {k = 128 : i32, m = 16 : i32, n = 16 : i32} : f8E8M0FNU, vector<32xf4E2M1FN>, f8E8M0FNU, vector<32xf4E2M1FN>, vector<4xf32>
          %1191 = amdgpu.scaled_mfma(%1180[0] * %1048) * (%1168[0] * %1000) + %1190 {k = 128 : i32, m = 16 : i32, n = 16 : i32} : f8E8M0FNU, vector<32xf4E2M1FN>, f8E8M0FNU, vector<32xf4E2M1FN>, vector<4xf32>
          %1192 = amdgpu.scaled_mfma(%1178[0] * %1046) * (%1170[0] * %1002) + %1105 {k = 128 : i32, m = 16 : i32, n = 16 : i32} : f8E8M0FNU, vector<32xf4E2M1FN>, f8E8M0FNU, vector<32xf4E2M1FN>, vector<4xf32>
          %1193 = amdgpu.scaled_mfma(%1180[0] * %1048) * (%1172[0] * %1004) + %1192 {k = 128 : i32, m = 16 : i32, n = 16 : i32} : f8E8M0FNU, vector<32xf4E2M1FN>, f8E8M0FNU, vector<32xf4E2M1FN>, vector<4xf32>
          %1194 = amdgpu.scaled_mfma(%1178[0] * %1046) * (%1174[0] * %1006) + %1107 {k = 128 : i32, m = 16 : i32, n = 16 : i32} : f8E8M0FNU, vector<32xf4E2M1FN>, f8E8M0FNU, vector<32xf4E2M1FN>, vector<4xf32>
          %1195 = amdgpu.scaled_mfma(%1180[0] * %1048) * (%1176[0] * %1009) + %1194 {k = 128 : i32, m = 16 : i32, n = 16 : i32} : f8E8M0FNU, vector<32xf4E2M1FN>, f8E8M0FNU, vector<32xf4E2M1FN>, vector<4xf32>
          %1196 = vector.extractelement %921[%c0 : index] : vector<1xf8E8M0FNU>
          %1197 = amdgpu.scaled_mfma(%1196[0] * %1050) * (%1145[0] * %978) + %1111 {k = 128 : i32, m = 16 : i32, n = 16 : i32} : f8E8M0FNU, vector<32xf4E2M1FN>, f8E8M0FNU, vector<32xf4E2M1FN>, vector<4xf32>
          %1198 = vector.extractelement %923[%c0 : index] : vector<1xf8E8M0FNU>
          %1199 = amdgpu.scaled_mfma(%1198[0] * %1052) * (%1148[0] * %980) + %1197 {k = 128 : i32, m = 16 : i32, n = 16 : i32} : f8E8M0FNU, vector<32xf4E2M1FN>, f8E8M0FNU, vector<32xf4E2M1FN>, vector<4xf32>
          %1200 = amdgpu.scaled_mfma(%1196[0] * %1050) * (%1150[0] * %982) + %1113 {k = 128 : i32, m = 16 : i32, n = 16 : i32} : f8E8M0FNU, vector<32xf4E2M1FN>, f8E8M0FNU, vector<32xf4E2M1FN>, vector<4xf32>
          %1201 = amdgpu.scaled_mfma(%1198[0] * %1052) * (%1152[0] * %984) + %1200 {k = 128 : i32, m = 16 : i32, n = 16 : i32} : f8E8M0FNU, vector<32xf4E2M1FN>, f8E8M0FNU, vector<32xf4E2M1FN>, vector<4xf32>
          %1202 = amdgpu.scaled_mfma(%1196[0] * %1050) * (%1154[0] * %986) + %1115 {k = 128 : i32, m = 16 : i32, n = 16 : i32} : f8E8M0FNU, vector<32xf4E2M1FN>, f8E8M0FNU, vector<32xf4E2M1FN>, vector<4xf32>
          %1203 = amdgpu.scaled_mfma(%1198[0] * %1052) * (%1156[0] * %988) + %1202 {k = 128 : i32, m = 16 : i32, n = 16 : i32} : f8E8M0FNU, vector<32xf4E2M1FN>, f8E8M0FNU, vector<32xf4E2M1FN>, vector<4xf32>
          %1204 = amdgpu.scaled_mfma(%1196[0] * %1050) * (%1158[0] * %990) + %1117 {k = 128 : i32, m = 16 : i32, n = 16 : i32} : f8E8M0FNU, vector<32xf4E2M1FN>, f8E8M0FNU, vector<32xf4E2M1FN>, vector<4xf32>
          %1205 = amdgpu.scaled_mfma(%1198[0] * %1052) * (%1160[0] * %992) + %1204 {k = 128 : i32, m = 16 : i32, n = 16 : i32} : f8E8M0FNU, vector<32xf4E2M1FN>, f8E8M0FNU, vector<32xf4E2M1FN>, vector<4xf32>
          %1206 = amdgpu.scaled_mfma(%1196[0] * %1050) * (%1162[0] * %994) + %1119 {k = 128 : i32, m = 16 : i32, n = 16 : i32} : f8E8M0FNU, vector<32xf4E2M1FN>, f8E8M0FNU, vector<32xf4E2M1FN>, vector<4xf32>
          %1207 = amdgpu.scaled_mfma(%1198[0] * %1052) * (%1164[0] * %996) + %1206 {k = 128 : i32, m = 16 : i32, n = 16 : i32} : f8E8M0FNU, vector<32xf4E2M1FN>, f8E8M0FNU, vector<32xf4E2M1FN>, vector<4xf32>
          %1208 = amdgpu.scaled_mfma(%1196[0] * %1050) * (%1166[0] * %998) + %1121 {k = 128 : i32, m = 16 : i32, n = 16 : i32} : f8E8M0FNU, vector<32xf4E2M1FN>, f8E8M0FNU, vector<32xf4E2M1FN>, vector<4xf32>
          %1209 = amdgpu.scaled_mfma(%1198[0] * %1052) * (%1168[0] * %1000) + %1208 {k = 128 : i32, m = 16 : i32, n = 16 : i32} : f8E8M0FNU, vector<32xf4E2M1FN>, f8E8M0FNU, vector<32xf4E2M1FN>, vector<4xf32>
          %1210 = amdgpu.scaled_mfma(%1196[0] * %1050) * (%1170[0] * %1002) + %1123 {k = 128 : i32, m = 16 : i32, n = 16 : i32} : f8E8M0FNU, vector<32xf4E2M1FN>, f8E8M0FNU, vector<32xf4E2M1FN>, vector<4xf32>
          %1211 = amdgpu.scaled_mfma(%1198[0] * %1052) * (%1172[0] * %1004) + %1210 {k = 128 : i32, m = 16 : i32, n = 16 : i32} : f8E8M0FNU, vector<32xf4E2M1FN>, f8E8M0FNU, vector<32xf4E2M1FN>, vector<4xf32>
          %1212 = amdgpu.scaled_mfma(%1196[0] * %1050) * (%1174[0] * %1006) + %1125 {k = 128 : i32, m = 16 : i32, n = 16 : i32} : f8E8M0FNU, vector<32xf4E2M1FN>, f8E8M0FNU, vector<32xf4E2M1FN>, vector<4xf32>
          %1213 = amdgpu.scaled_mfma(%1198[0] * %1052) * (%1176[0] * %1009) + %1212 {k = 128 : i32, m = 16 : i32, n = 16 : i32} : f8E8M0FNU, vector<32xf4E2M1FN>, f8E8M0FNU, vector<32xf4E2M1FN>, vector<4xf32>
          %1214 = vector.extractelement %925[%c0 : index] : vector<1xf8E8M0FNU>
          %1215 = amdgpu.scaled_mfma(%1214[0] * %1054) * (%1145[0] * %978) + %1129 {k = 128 : i32, m = 16 : i32, n = 16 : i32} : f8E8M0FNU, vector<32xf4E2M1FN>, f8E8M0FNU, vector<32xf4E2M1FN>, vector<4xf32>
          %1216 = vector.extractelement %929[%c0 : index] : vector<1xf8E8M0FNU>
          %1217 = amdgpu.scaled_mfma(%1216[0] * %1055) * (%1148[0] * %980) + %1215 {k = 128 : i32, m = 16 : i32, n = 16 : i32} : f8E8M0FNU, vector<32xf4E2M1FN>, f8E8M0FNU, vector<32xf4E2M1FN>, vector<4xf32>
          %1218 = amdgpu.scaled_mfma(%1214[0] * %1054) * (%1150[0] * %982) + %1131 {k = 128 : i32, m = 16 : i32, n = 16 : i32} : f8E8M0FNU, vector<32xf4E2M1FN>, f8E8M0FNU, vector<32xf4E2M1FN>, vector<4xf32>
          %1219 = amdgpu.scaled_mfma(%1216[0] * %1055) * (%1152[0] * %984) + %1218 {k = 128 : i32, m = 16 : i32, n = 16 : i32} : f8E8M0FNU, vector<32xf4E2M1FN>, f8E8M0FNU, vector<32xf4E2M1FN>, vector<4xf32>
          %1220 = amdgpu.scaled_mfma(%1214[0] * %1054) * (%1154[0] * %986) + %1133 {k = 128 : i32, m = 16 : i32, n = 16 : i32} : f8E8M0FNU, vector<32xf4E2M1FN>, f8E8M0FNU, vector<32xf4E2M1FN>, vector<4xf32>
          %1221 = amdgpu.scaled_mfma(%1216[0] * %1055) * (%1156[0] * %988) + %1220 {k = 128 : i32, m = 16 : i32, n = 16 : i32} : f8E8M0FNU, vector<32xf4E2M1FN>, f8E8M0FNU, vector<32xf4E2M1FN>, vector<4xf32>
          %1222 = amdgpu.scaled_mfma(%1214[0] * %1054) * (%1158[0] * %990) + %1135 {k = 128 : i32, m = 16 : i32, n = 16 : i32} : f8E8M0FNU, vector<32xf4E2M1FN>, f8E8M0FNU, vector<32xf4E2M1FN>, vector<4xf32>
          %1223 = amdgpu.scaled_mfma(%1216[0] * %1055) * (%1160[0] * %992) + %1222 {k = 128 : i32, m = 16 : i32, n = 16 : i32} : f8E8M0FNU, vector<32xf4E2M1FN>, f8E8M0FNU, vector<32xf4E2M1FN>, vector<4xf32>
          %1224 = amdgpu.scaled_mfma(%1214[0] * %1054) * (%1162[0] * %994) + %1137 {k = 128 : i32, m = 16 : i32, n = 16 : i32} : f8E8M0FNU, vector<32xf4E2M1FN>, f8E8M0FNU, vector<32xf4E2M1FN>, vector<4xf32>
          %1225 = amdgpu.scaled_mfma(%1216[0] * %1055) * (%1164[0] * %996) + %1224 {k = 128 : i32, m = 16 : i32, n = 16 : i32} : f8E8M0FNU, vector<32xf4E2M1FN>, f8E8M0FNU, vector<32xf4E2M1FN>, vector<4xf32>
          %1226 = amdgpu.scaled_mfma(%1214[0] * %1054) * (%1166[0] * %998) + %1139 {k = 128 : i32, m = 16 : i32, n = 16 : i32} : f8E8M0FNU, vector<32xf4E2M1FN>, f8E8M0FNU, vector<32xf4E2M1FN>, vector<4xf32>
          %1227 = amdgpu.scaled_mfma(%1216[0] * %1055) * (%1168[0] * %1000) + %1226 {k = 128 : i32, m = 16 : i32, n = 16 : i32} : f8E8M0FNU, vector<32xf4E2M1FN>, f8E8M0FNU, vector<32xf4E2M1FN>, vector<4xf32>
          %1228 = amdgpu.scaled_mfma(%1214[0] * %1054) * (%1170[0] * %1002) + %1141 {k = 128 : i32, m = 16 : i32, n = 16 : i32} : f8E8M0FNU, vector<32xf4E2M1FN>, f8E8M0FNU, vector<32xf4E2M1FN>, vector<4xf32>
          %1229 = amdgpu.scaled_mfma(%1216[0] * %1055) * (%1172[0] * %1004) + %1228 {k = 128 : i32, m = 16 : i32, n = 16 : i32} : f8E8M0FNU, vector<32xf4E2M1FN>, f8E8M0FNU, vector<32xf4E2M1FN>, vector<4xf32>
          %1230 = amdgpu.scaled_mfma(%1214[0] * %1054) * (%1174[0] * %1006) + %1143 {k = 128 : i32, m = 16 : i32, n = 16 : i32} : f8E8M0FNU, vector<32xf4E2M1FN>, f8E8M0FNU, vector<32xf4E2M1FN>, vector<4xf32>
          %1231 = amdgpu.scaled_mfma(%1216[0] * %1055) * (%1176[0] * %1009) + %1230 {k = 128 : i32, m = 16 : i32, n = 16 : i32} : f8E8M0FNU, vector<32xf4E2M1FN>, f8E8M0FNU, vector<32xf4E2M1FN>, vector<4xf32>
          amdgpu.lds_barrier
        //   vector.store %893, %view_1[%90, %37] : memref<256x24xi8, #gpu.address_space<workgroup>>, vector<8xi8>
        //   vector.store %828, %view[%90, %37] : memref<256x24xi8, #gpu.address_space<workgroup>>, vector<8xi8>
          vector.store %1021, %view_2[%82, %2] : memref<256x272xi8, #gpu.address_space<workgroup>>, vector<16xi8>
          vector.store %1015, %view_2[%83, %2] : memref<256x272xi8, #gpu.address_space<workgroup>>, vector<16xi8>
          vector.store %1013, %view_2[%89, %2] : memref<256x272xi8, #gpu.address_space<workgroup>>, vector<16xi8>
          vector.store %1023, %view_2[%87, %2] : memref<256x272xi8, #gpu.address_space<workgroup>>, vector<16xi8>
          vector.store %1019, %view_2[%88, %2] : memref<256x272xi8, #gpu.address_space<workgroup>>, vector<16xi8>
          vector.store %1008, %view_2[%85, %2] : memref<256x272xi8, #gpu.address_space<workgroup>>, vector<16xi8>
          vector.store %1017, %view_2[%84, %2] : memref<256x272xi8, #gpu.address_space<workgroup>>, vector<16xi8>
          vector.store %1011, %view_2[%86, %2] : memref<256x272xi8, #gpu.address_space<workgroup>>, vector<16xi8>
          vector.store %928, %view_0[%85, %2] : memref<256x272xi8, #gpu.address_space<workgroup>>, vector<16xi8>
          vector.store %943, %view_0[%83, %2] : memref<256x272xi8, #gpu.address_space<workgroup>>, vector<16xi8>
          vector.store %937, %view_0[%88, %2] : memref<256x272xi8, #gpu.address_space<workgroup>>, vector<16xi8>
          vector.store %935, %view_0[%86, %2] : memref<256x272xi8, #gpu.address_space<workgroup>>, vector<16xi8>
          vector.store %941, %view_0[%82, %2] : memref<256x272xi8, #gpu.address_space<workgroup>>, vector<16xi8>
          vector.store %931, %view_0[%84, %2] : memref<256x272xi8, #gpu.address_space<workgroup>>, vector<16xi8>
          vector.store %933, %view_0[%89, %2] : memref<256x272xi8, #gpu.address_space<workgroup>>, vector<16xi8>
          vector.store %939, %view_0[%87, %2] : memref<256x272xi8, #gpu.address_space<workgroup>>, vector<16xi8>
          scf.yield %1149, %1153, %1157, %1161, %1165, %1169, %1173, %1177, %1181, %1183, %1185, %1187, %1189, %1191, %1193, %1195, %1199, %1201, %1203, %1205, %1207, %1209, %1211, %1213, %1217, %1219, %1221, %1223, %1225, %1227, %1229, %1231 : vector<4xf32>, vector<4xf32>, vector<4xf32>, vector<4xf32>, vector<4xf32>, vector<4xf32>, vector<4xf32>, vector<4xf32>, vector<4xf32>, vector<4xf32>, vector<4xf32>, vector<4xf32>, vector<4xf32>, vector<4xf32>, vector<4xf32>, vector<4xf32>, vector<4xf32>, vector<4xf32>, vector<4xf32>, vector<4xf32>, vector<4xf32>, vector<4xf32>, vector<4xf32>, vector<4xf32>, vector<4xf32>, vector<4xf32>, vector<4xf32>, vector<4xf32>, vector<4xf32>, vector<4xf32>, vector<4xf32>, vector<4xf32>
        }
        amdgpu.lds_barrier
        %112 = affine.apply #map20()[%thread_id_x, %thread_id_y]
        %113 = affine.apply #map21()[%thread_id_x]
        // %114 = vector.load %view[%112, %113] : memref<256x24xi8, #gpu.address_space<workgroup>>, vector<1xi8>
        %115 = affine.apply #map22()[%thread_id_x]
        // %116 = vector.load %view[%112, %115] : memref<256x24xi8, #gpu.address_space<workgroup>>, vector<1xi8>
        %117 = affine.apply #map30()[%thread_id_x]
        // %118 = vector.load %view[%112, %117] : memref<256x24xi8, #gpu.address_space<workgroup>>, vector<1xi8>
        %119 = affine.apply #map31()[%thread_id_x]
        // %120 = vector.load %view[%112, %119] : memref<256x24xi8, #gpu.address_space<workgroup>>, vector<1xi8>
        %121 = affine.apply #map23()[%thread_id_x, %thread_id_y]
        // %122 = vector.load %view[%121, %113] : memref<256x24xi8, #gpu.address_space<workgroup>>, vector<1xi8>
        // %123 = vector.load %view[%121, %115] : memref<256x24xi8, #gpu.address_space<workgroup>>, vector<1xi8>
        // %124 = vector.load %view[%121, %117] : memref<256x24xi8, #gpu.address_space<workgroup>>, vector<1xi8>
        // %125 = vector.load %view[%121, %119] : memref<256x24xi8, #gpu.address_space<workgroup>>, vector<1xi8>
        %126 = affine.apply #map24()[%thread_id_x, %thread_id_y]
        // %127 = vector.load %view[%126, %113] : memref<256x24xi8, #gpu.address_space<workgroup>>, vector<1xi8>
        // %128 = vector.load %view[%126, %115] : memref<256x24xi8, #gpu.address_space<workgroup>>, vector<1xi8>
        // %129 = vector.load %view[%126, %117] : memref<256x24xi8, #gpu.address_space<workgroup>>, vector<1xi8>
        // %130 = vector.load %view[%126, %119] : memref<256x24xi8, #gpu.address_space<workgroup>>, vector<1xi8>
        %131 = affine.apply #map25()[%thread_id_x, %thread_id_y]
        // %132 = vector.load %view[%131, %113] : memref<256x24xi8, #gpu.address_space<workgroup>>, vector<1xi8>
        // %133 = vector.load %view[%131, %115] : memref<256x24xi8, #gpu.address_space<workgroup>>, vector<1xi8>
        // %134 = vector.load %view[%131, %117] : memref<256x24xi8, #gpu.address_space<workgroup>>, vector<1xi8>
        // %135 = vector.load %view[%131, %119] : memref<256x24xi8, #gpu.address_space<workgroup>>, vector<1xi8>
        %136 = affine.apply #map26()[%thread_id_x, %thread_id_y]
        // %137 = vector.load %view[%136, %113] : memref<256x24xi8, #gpu.address_space<workgroup>>, vector<1xi8>
        // %138 = vector.load %view[%136, %115] : memref<256x24xi8, #gpu.address_space<workgroup>>, vector<1xi8>
        // %139 = vector.load %view[%136, %117] : memref<256x24xi8, #gpu.address_space<workgroup>>, vector<1xi8>
        // %140 = vector.load %view[%136, %119] : memref<256x24xi8, #gpu.address_space<workgroup>>, vector<1xi8>
        %141 = affine.apply #map27()[%thread_id_x, %thread_id_y]
        // %142 = vector.load %view[%141, %113] : memref<256x24xi8, #gpu.address_space<workgroup>>, vector<1xi8>
        // %143 = vector.load %view[%141, %115] : memref<256x24xi8, #gpu.address_space<workgroup>>, vector<1xi8>
        // %144 = vector.load %view[%141, %117] : memref<256x24xi8, #gpu.address_space<workgroup>>, vector<1xi8>
        // %145 = vector.load %view[%141, %119] : memref<256x24xi8, #gpu.address_space<workgroup>>, vector<1xi8>
        %146 = affine.apply #map28()[%thread_id_x, %thread_id_y]
        // %147 = vector.load %view[%146, %113] : memref<256x24xi8, #gpu.address_space<workgroup>>, vector<1xi8>
        // %148 = vector.load %view[%146, %115] : memref<256x24xi8, #gpu.address_space<workgroup>>, vector<1xi8>
        // %149 = vector.load %view[%146, %117] : memref<256x24xi8, #gpu.address_space<workgroup>>, vector<1xi8>
        // %150 = vector.load %view[%146, %119] : memref<256x24xi8, #gpu.address_space<workgroup>>, vector<1xi8>
        %151 = affine.apply #map29()[%thread_id_x, %thread_id_y]
        // %152 = vector.load %view[%151, %113] : memref<256x24xi8, #gpu.address_space<workgroup>>, vector<1xi8>
        // %153 = vector.load %view[%151, %115] : memref<256x24xi8, #gpu.address_space<workgroup>>, vector<1xi8>
        // %154 = vector.load %view[%151, %117] : memref<256x24xi8, #gpu.address_space<workgroup>>, vector<1xi8>
        // %155 = vector.load %view[%151, %119] : memref<256x24xi8, #gpu.address_space<workgroup>>, vector<1xi8>
        %156 = affine.apply #map36()[%thread_id_x]
        %157 = vector.load %view_0[%112, %156] : memref<256x272xi8, #gpu.address_space<workgroup>>, vector<16xi8>
        %158 = affine.apply #map37()[%thread_id_x]
        %159 = vector.load %view_0[%112, %158] : memref<256x272xi8, #gpu.address_space<workgroup>>, vector<16xi8>
        %160 = affine.apply #map38()[%thread_id_x]
        %161 = vector.load %view_0[%112, %160] : memref<256x272xi8, #gpu.address_space<workgroup>>, vector<16xi8>
        %162 = affine.apply #map39()[%thread_id_x]
        %163 = vector.load %view_0[%112, %162] : memref<256x272xi8, #gpu.address_space<workgroup>>, vector<16xi8>
        %164 = vector.load %view_0[%121, %156] : memref<256x272xi8, #gpu.address_space<workgroup>>, vector<16xi8>
        %165 = vector.load %view_0[%121, %158] : memref<256x272xi8, #gpu.address_space<workgroup>>, vector<16xi8>
        %166 = vector.load %view_0[%121, %160] : memref<256x272xi8, #gpu.address_space<workgroup>>, vector<16xi8>
        %167 = vector.load %view_0[%121, %162] : memref<256x272xi8, #gpu.address_space<workgroup>>, vector<16xi8>
        %168 = vector.load %view_0[%126, %156] : memref<256x272xi8, #gpu.address_space<workgroup>>, vector<16xi8>
        %169 = vector.load %view_0[%126, %158] : memref<256x272xi8, #gpu.address_space<workgroup>>, vector<16xi8>
        %170 = vector.load %view_0[%126, %160] : memref<256x272xi8, #gpu.address_space<workgroup>>, vector<16xi8>
        %171 = vector.load %view_0[%126, %162] : memref<256x272xi8, #gpu.address_space<workgroup>>, vector<16xi8>
        %172 = vector.load %view_0[%131, %156] : memref<256x272xi8, #gpu.address_space<workgroup>>, vector<16xi8>
        %173 = vector.load %view_0[%131, %158] : memref<256x272xi8, #gpu.address_space<workgroup>>, vector<16xi8>
        %174 = vector.load %view_0[%131, %160] : memref<256x272xi8, #gpu.address_space<workgroup>>, vector<16xi8>
        %175 = vector.load %view_0[%131, %162] : memref<256x272xi8, #gpu.address_space<workgroup>>, vector<16xi8>
        %176 = vector.load %view_0[%136, %156] : memref<256x272xi8, #gpu.address_space<workgroup>>, vector<16xi8>
        %177 = vector.load %view_0[%136, %158] : memref<256x272xi8, #gpu.address_space<workgroup>>, vector<16xi8>
        %178 = vector.load %view_0[%136, %160] : memref<256x272xi8, #gpu.address_space<workgroup>>, vector<16xi8>
        %179 = vector.load %view_0[%136, %162] : memref<256x272xi8, #gpu.address_space<workgroup>>, vector<16xi8>
        %180 = vector.load %view_0[%141, %156] : memref<256x272xi8, #gpu.address_space<workgroup>>, vector<16xi8>
        %181 = vector.load %view_0[%141, %158] : memref<256x272xi8, #gpu.address_space<workgroup>>, vector<16xi8>
        %182 = vector.load %view_0[%141, %160] : memref<256x272xi8, #gpu.address_space<workgroup>>, vector<16xi8>
        %183 = vector.load %view_0[%141, %162] : memref<256x272xi8, #gpu.address_space<workgroup>>, vector<16xi8>
        %184 = vector.load %view_0[%146, %156] : memref<256x272xi8, #gpu.address_space<workgroup>>, vector<16xi8>
        %185 = vector.load %view_0[%146, %158] : memref<256x272xi8, #gpu.address_space<workgroup>>, vector<16xi8>
        %186 = vector.load %view_0[%146, %160] : memref<256x272xi8, #gpu.address_space<workgroup>>, vector<16xi8>
        %187 = vector.load %view_0[%146, %162] : memref<256x272xi8, #gpu.address_space<workgroup>>, vector<16xi8>
        %188 = vector.load %view_0[%151, %156] : memref<256x272xi8, #gpu.address_space<workgroup>>, vector<16xi8>
        %189 = vector.load %view_0[%151, %158] : memref<256x272xi8, #gpu.address_space<workgroup>>, vector<16xi8>
        %190 = vector.load %view_0[%151, %160] : memref<256x272xi8, #gpu.address_space<workgroup>>, vector<16xi8>
        %191 = vector.load %view_0[%151, %162] : memref<256x272xi8, #gpu.address_space<workgroup>>, vector<16xi8>
        %192 = affine.apply #map32()[%thread_id_x]
        // %193 = vector.load %view_1[%192, %113] : memref<256x24xi8, #gpu.address_space<workgroup>>, vector<1xi8>
        // %194 = vector.load %view_1[%192, %115] : memref<256x24xi8, #gpu.address_space<workgroup>>, vector<1xi8>
        // %195 = vector.load %view_1[%192, %117] : memref<256x24xi8, #gpu.address_space<workgroup>>, vector<1xi8>
        // %196 = vector.load %view_1[%192, %119] : memref<256x24xi8, #gpu.address_space<workgroup>>, vector<1xi8>
        %197 = affine.apply #map33()[%thread_id_x]
        // %198 = vector.load %view_1[%197, %113] : memref<256x24xi8, #gpu.address_space<workgroup>>, vector<1xi8>
        // %199 = vector.load %view_1[%197, %115] : memref<256x24xi8, #gpu.address_space<workgroup>>, vector<1xi8>
        // %200 = vector.load %view_1[%197, %117] : memref<256x24xi8, #gpu.address_space<workgroup>>, vector<1xi8>
        // %201 = vector.load %view_1[%197, %119] : memref<256x24xi8, #gpu.address_space<workgroup>>, vector<1xi8>
        %202 = affine.apply #map34()[%thread_id_x]
        // %203 = vector.load %view_1[%202, %113] : memref<256x24xi8, #gpu.address_space<workgroup>>, vector<1xi8>
        // %204 = vector.load %view_1[%202, %115] : memref<256x24xi8, #gpu.address_space<workgroup>>, vector<1xi8>
        // %205 = vector.load %view_1[%202, %117] : memref<256x24xi8, #gpu.address_space<workgroup>>, vector<1xi8>
        // %206 = vector.load %view_1[%202, %119] : memref<256x24xi8, #gpu.address_space<workgroup>>, vector<1xi8>
        %207 = affine.apply #map35()[%thread_id_x]
        // %208 = vector.load %view_1[%207, %113] : memref<256x24xi8, #gpu.address_space<workgroup>>, vector<1xi8>
        // %209 = vector.load %view_1[%207, %115] : memref<256x24xi8, #gpu.address_space<workgroup>>, vector<1xi8>
        // %210 = vector.load %view_1[%207, %117] : memref<256x24xi8, #gpu.address_space<workgroup>>, vector<1xi8>
        // %211 = vector.load %view_1[%207, %119] : memref<256x24xi8, #gpu.address_space<workgroup>>, vector<1xi8>
        %212 = vector.load %view_2[%192, %156] : memref<256x272xi8, #gpu.address_space<workgroup>>, vector<16xi8>
        %213 = vector.load %view_2[%192, %158] : memref<256x272xi8, #gpu.address_space<workgroup>>, vector<16xi8>
        %214 = vector.load %view_2[%192, %160] : memref<256x272xi8, #gpu.address_space<workgroup>>, vector<16xi8>
        %215 = vector.load %view_2[%192, %162] : memref<256x272xi8, #gpu.address_space<workgroup>>, vector<16xi8>
        %216 = vector.load %view_2[%197, %156] : memref<256x272xi8, #gpu.address_space<workgroup>>, vector<16xi8>
        %217 = vector.load %view_2[%197, %158] : memref<256x272xi8, #gpu.address_space<workgroup>>, vector<16xi8>
        %218 = vector.load %view_2[%197, %160] : memref<256x272xi8, #gpu.address_space<workgroup>>, vector<16xi8>
        %219 = vector.load %view_2[%197, %162] : memref<256x272xi8, #gpu.address_space<workgroup>>, vector<16xi8>
        %220 = vector.load %view_2[%202, %156] : memref<256x272xi8, #gpu.address_space<workgroup>>, vector<16xi8>
        %221 = vector.load %view_2[%202, %158] : memref<256x272xi8, #gpu.address_space<workgroup>>, vector<16xi8>
        %222 = vector.load %view_2[%202, %160] : memref<256x272xi8, #gpu.address_space<workgroup>>, vector<16xi8>
        %223 = vector.load %view_2[%202, %162] : memref<256x272xi8, #gpu.address_space<workgroup>>, vector<16xi8>
        %224 = vector.load %view_2[%207, %156] : memref<256x272xi8, #gpu.address_space<workgroup>>, vector<16xi8>
        %225 = vector.load %view_2[%207, %158] : memref<256x272xi8, #gpu.address_space<workgroup>>, vector<16xi8>
        %226 = vector.load %view_2[%207, %160] : memref<256x272xi8, #gpu.address_space<workgroup>>, vector<16xi8>
        %227 = vector.load %view_2[%207, %162] : memref<256x272xi8, #gpu.address_space<workgroup>>, vector<16xi8>
        %228 = vector.bitcast %212 : vector<16xi8> to vector<32xf4E2M1FN>
        %229 = vector.bitcast %213 : vector<16xi8> to vector<32xf4E2M1FN>
        %230 = vector.bitcast %214 : vector<16xi8> to vector<32xf4E2M1FN>
        %231 = vector.bitcast %215 : vector<16xi8> to vector<32xf4E2M1FN>
        %232 = vector.bitcast %216 : vector<16xi8> to vector<32xf4E2M1FN>
        %233 = vector.bitcast %217 : vector<16xi8> to vector<32xf4E2M1FN>
        %234 = vector.bitcast %218 : vector<16xi8> to vector<32xf4E2M1FN>
        %235 = vector.bitcast %219 : vector<16xi8> to vector<32xf4E2M1FN>
        %236 = vector.bitcast %220 : vector<16xi8> to vector<32xf4E2M1FN>
        %237 = vector.bitcast %221 : vector<16xi8> to vector<32xf4E2M1FN>
        %238 = vector.bitcast %222 : vector<16xi8> to vector<32xf4E2M1FN>
        %239 = vector.bitcast %223 : vector<16xi8> to vector<32xf4E2M1FN>
        %240 = vector.bitcast %224 : vector<16xi8> to vector<32xf4E2M1FN>
        %241 = vector.bitcast %225 : vector<16xi8> to vector<32xf4E2M1FN>
        %242 = vector.bitcast %226 : vector<16xi8> to vector<32xf4E2M1FN>
        %243 = vector.bitcast %227 : vector<16xi8> to vector<32xf4E2M1FN>
        //scale B - ref
        // %244 = vector.bitcast %193 : vector<1xi8> to vector<1xf8E8M0FNU>
        // %245 = vector.bitcast %194 : vector<1xi8> to vector<1xf8E8M0FNU>
        // %246 = vector.bitcast %195 : vector<1xi8> to vector<1xf8E8M0FNU>
        // %247 = vector.bitcast %196 : vector<1xi8> to vector<1xf8E8M0FNU>
        // %248 = vector.bitcast %198 : vector<1xi8> to vector<1xf8E8M0FNU>
        // %249 = vector.bitcast %199 : vector<1xi8> to vector<1xf8E8M0FNU>
        // %250 = vector.bitcast %200 : vector<1xi8> to vector<1xf8E8M0FNU>
        // %251 = vector.bitcast %201 : vector<1xi8> to vector<1xf8E8M0FNU>
        // %252 = vector.bitcast %203 : vector<1xi8> to vector<1xf8E8M0FNU>
        // %253 = vector.bitcast %204 : vector<1xi8> to vector<1xf8E8M0FNU>
        // %254 = vector.bitcast %205 : vector<1xi8> to vector<1xf8E8M0FNU>
        // %255 = vector.bitcast %206 : vector<1xi8> to vector<1xf8E8M0FNU>
        // %256 = vector.bitcast %208 : vector<1xi8> to vector<1xf8E8M0FNU>
        // %257 = vector.bitcast %209 : vector<1xi8> to vector<1xf8E8M0FNU>
        // %258 = vector.bitcast %210 : vector<1xi8> to vector<1xf8E8M0FNU>
        // %259 = vector.bitcast %211 : vector<1xi8> to vector<1xf8E8M0FNU>
        //scale B - 1.0
        %244 = arith.constant dense<1.0> :  vector<1xf8E8M0FNU>
        %245 = arith.constant dense<1.0> :  vector<1xf8E8M0FNU>
        %246 = arith.constant dense<1.0> :  vector<1xf8E8M0FNU>
        %247 = arith.constant dense<1.0> :  vector<1xf8E8M0FNU>
        %248 = arith.constant dense<1.0> :  vector<1xf8E8M0FNU>
        %249 = arith.constant dense<1.0> :  vector<1xf8E8M0FNU>
        %250 = arith.constant dense<1.0> :  vector<1xf8E8M0FNU>
        %251 = arith.constant dense<1.0> :  vector<1xf8E8M0FNU>
        %252 = arith.constant dense<1.0> :  vector<1xf8E8M0FNU>
        %253 = arith.constant dense<1.0> :  vector<1xf8E8M0FNU>
        %254 = arith.constant dense<1.0> :  vector<1xf8E8M0FNU>
        %255 = arith.constant dense<1.0> :  vector<1xf8E8M0FNU>
        %256 = arith.constant dense<1.0> :  vector<1xf8E8M0FNU>
        %257 = arith.constant dense<1.0> :  vector<1xf8E8M0FNU>
        %258 = arith.constant dense<1.0> :  vector<1xf8E8M0FNU>
        %259 = arith.constant dense<1.0> :  vector<1xf8E8M0FNU>


        %260 = vector.bitcast %157 : vector<16xi8> to vector<32xf4E2M1FN>
        %261 = vector.bitcast %159 : vector<16xi8> to vector<32xf4E2M1FN>
        %262 = vector.bitcast %161 : vector<16xi8> to vector<32xf4E2M1FN>
        %263 = vector.bitcast %163 : vector<16xi8> to vector<32xf4E2M1FN>
        %264 = vector.bitcast %164 : vector<16xi8> to vector<32xf4E2M1FN>
        %265 = vector.bitcast %165 : vector<16xi8> to vector<32xf4E2M1FN>
        %266 = vector.bitcast %166 : vector<16xi8> to vector<32xf4E2M1FN>
        %267 = vector.bitcast %167 : vector<16xi8> to vector<32xf4E2M1FN>
        %268 = vector.bitcast %168 : vector<16xi8> to vector<32xf4E2M1FN>
        %269 = vector.bitcast %169 : vector<16xi8> to vector<32xf4E2M1FN>
        %270 = vector.bitcast %170 : vector<16xi8> to vector<32xf4E2M1FN>
        %271 = vector.bitcast %171 : vector<16xi8> to vector<32xf4E2M1FN>
        %272 = vector.bitcast %172 : vector<16xi8> to vector<32xf4E2M1FN>
        %273 = vector.bitcast %173 : vector<16xi8> to vector<32xf4E2M1FN>
        %274 = vector.bitcast %174 : vector<16xi8> to vector<32xf4E2M1FN>
        %275 = vector.bitcast %175 : vector<16xi8> to vector<32xf4E2M1FN>
        %276 = vector.bitcast %176 : vector<16xi8> to vector<32xf4E2M1FN>
        %277 = vector.bitcast %177 : vector<16xi8> to vector<32xf4E2M1FN>
        %278 = vector.bitcast %178 : vector<16xi8> to vector<32xf4E2M1FN>
        %279 = vector.bitcast %179 : vector<16xi8> to vector<32xf4E2M1FN>
        %280 = vector.bitcast %180 : vector<16xi8> to vector<32xf4E2M1FN>
        %281 = vector.bitcast %181 : vector<16xi8> to vector<32xf4E2M1FN>
        %282 = vector.bitcast %182 : vector<16xi8> to vector<32xf4E2M1FN>
        %283 = vector.bitcast %183 : vector<16xi8> to vector<32xf4E2M1FN>
        %284 = vector.bitcast %184 : vector<16xi8> to vector<32xf4E2M1FN>
        %285 = vector.bitcast %185 : vector<16xi8> to vector<32xf4E2M1FN>
        %286 = vector.bitcast %186 : vector<16xi8> to vector<32xf4E2M1FN>
        %287 = vector.bitcast %187 : vector<16xi8> to vector<32xf4E2M1FN>
        %288 = vector.bitcast %188 : vector<16xi8> to vector<32xf4E2M1FN>
        %289 = vector.bitcast %189 : vector<16xi8> to vector<32xf4E2M1FN>
        %290 = vector.bitcast %190 : vector<16xi8> to vector<32xf4E2M1FN>
        %291 = vector.bitcast %191 : vector<16xi8> to vector<32xf4E2M1FN>

        //scale A - ref 
        // %292 = vector.bitcast %114 : vector<1xi8> to vector<1xf8E8M0FNU>
        // %293 = vector.bitcast %116 : vector<1xi8> to vector<1xf8E8M0FNU>
        // %294 = vector.bitcast %118 : vector<1xi8> to vector<1xf8E8M0FNU>
        // %295 = vector.bitcast %120 : vector<1xi8> to vector<1xf8E8M0FNU>
        // %296 = vector.bitcast %122 : vector<1xi8> to vector<1xf8E8M0FNU>
        // %297 = vector.bitcast %123 : vector<1xi8> to vector<1xf8E8M0FNU>
        // %298 = vector.bitcast %124 : vector<1xi8> to vector<1xf8E8M0FNU>
        // %299 = vector.bitcast %125 : vector<1xi8> to vector<1xf8E8M0FNU>
        // %300 = vector.bitcast %127 : vector<1xi8> to vector<1xf8E8M0FNU>
        // %301 = vector.bitcast %128 : vector<1xi8> to vector<1xf8E8M0FNU>
        // %302 = vector.bitcast %129 : vector<1xi8> to vector<1xf8E8M0FNU>
        // %303 = vector.bitcast %130 : vector<1xi8> to vector<1xf8E8M0FNU>
        // %304 = vector.bitcast %132 : vector<1xi8> to vector<1xf8E8M0FNU>
        // %305 = vector.bitcast %133 : vector<1xi8> to vector<1xf8E8M0FNU>
        // %306 = vector.bitcast %134 : vector<1xi8> to vector<1xf8E8M0FNU>
        // %307 = vector.bitcast %135 : vector<1xi8> to vector<1xf8E8M0FNU>
        // %308 = vector.bitcast %137 : vector<1xi8> to vector<1xf8E8M0FNU>
        // %309 = vector.bitcast %138 : vector<1xi8> to vector<1xf8E8M0FNU>
        // %310 = vector.bitcast %139 : vector<1xi8> to vector<1xf8E8M0FNU>
        // %311 = vector.bitcast %140 : vector<1xi8> to vector<1xf8E8M0FNU>
        // %312 = vector.bitcast %142 : vector<1xi8> to vector<1xf8E8M0FNU>
        // %313 = vector.bitcast %143 : vector<1xi8> to vector<1xf8E8M0FNU>
        // %314 = vector.bitcast %144 : vector<1xi8> to vector<1xf8E8M0FNU>
        // %315 = vector.bitcast %145 : vector<1xi8> to vector<1xf8E8M0FNU>
        // %316 = vector.bitcast %147 : vector<1xi8> to vector<1xf8E8M0FNU>
        // %317 = vector.bitcast %148 : vector<1xi8> to vector<1xf8E8M0FNU>
        // %318 = vector.bitcast %149 : vector<1xi8> to vector<1xf8E8M0FNU>
        // %319 = vector.bitcast %150 : vector<1xi8> to vector<1xf8E8M0FNU>
        // %320 = vector.bitcast %152 : vector<1xi8> to vector<1xf8E8M0FNU>
        // %321 = vector.bitcast %153 : vector<1xi8> to vector<1xf8E8M0FNU>
        // %322 = vector.bitcast %154 : vector<1xi8> to vector<1xf8E8M0FNU>
        // %323 = vector.bitcast %155 : vector<1xi8> to vector<1xf8E8M0FNU>


        //scale A - 1.0
        %292 = arith.constant dense<1.0> :  vector<1xf8E8M0FNU>
        %293 = arith.constant dense<1.0> :  vector<1xf8E8M0FNU>
        %294 = arith.constant dense<1.0> :  vector<1xf8E8M0FNU>
        %295 = arith.constant dense<1.0> :  vector<1xf8E8M0FNU>
        %296 = arith.constant dense<1.0> :  vector<1xf8E8M0FNU>
        %297 = arith.constant dense<1.0> :  vector<1xf8E8M0FNU>
        %298 = arith.constant dense<1.0> :  vector<1xf8E8M0FNU>
        %299 = arith.constant dense<1.0> :  vector<1xf8E8M0FNU>
        %300 = arith.constant dense<1.0> :  vector<1xf8E8M0FNU>
        %301 = arith.constant dense<1.0> :  vector<1xf8E8M0FNU>
        %302 = arith.constant dense<1.0> :  vector<1xf8E8M0FNU>
        %303 = arith.constant dense<1.0> :  vector<1xf8E8M0FNU>
        %304 = arith.constant dense<1.0> :  vector<1xf8E8M0FNU>
        %305 = arith.constant dense<1.0> :  vector<1xf8E8M0FNU>
        %306 = arith.constant dense<1.0> :  vector<1xf8E8M0FNU>
        %307 = arith.constant dense<1.0> :  vector<1xf8E8M0FNU>
        %308 = arith.constant dense<1.0> :  vector<1xf8E8M0FNU>
        %309 = arith.constant dense<1.0> :  vector<1xf8E8M0FNU>
        %310 = arith.constant dense<1.0> :  vector<1xf8E8M0FNU>
        %311 = arith.constant dense<1.0> :  vector<1xf8E8M0FNU>
        %312 = arith.constant dense<1.0> :  vector<1xf8E8M0FNU>
        %313 = arith.constant dense<1.0> :  vector<1xf8E8M0FNU>
        %314 = arith.constant dense<1.0> :  vector<1xf8E8M0FNU>
        %315 = arith.constant dense<1.0> :  vector<1xf8E8M0FNU>
        %316 = arith.constant dense<1.0> :  vector<1xf8E8M0FNU>
        %317 = arith.constant dense<1.0> :  vector<1xf8E8M0FNU>
        %318 = arith.constant dense<1.0> :  vector<1xf8E8M0FNU>
        %319 = arith.constant dense<1.0> :  vector<1xf8E8M0FNU>
        %320 = arith.constant dense<1.0> :  vector<1xf8E8M0FNU>
        %321 = arith.constant dense<1.0> :  vector<1xf8E8M0FNU>
        %322 = arith.constant dense<1.0> :  vector<1xf8E8M0FNU>
        %323 = arith.constant dense<1.0> :  vector<1xf8E8M0FNU>

        %324 = vector.extractelement %244[%c0 : index] : vector<1xf8E8M0FNU>
        %325 = vector.extractelement %292[%c0 : index] : vector<1xf8E8M0FNU>
        %326 = amdgpu.scaled_mfma(%324[0] * %228) * (%325[0] * %260) + %111#0 {k = 128 : i32, m = 16 : i32, n = 16 : i32} : f8E8M0FNU, vector<32xf4E2M1FN>, f8E8M0FNU, vector<32xf4E2M1FN>, vector<4xf32>
        %327 = vector.extractelement %245[%c0 : index] : vector<1xf8E8M0FNU>
        %328 = vector.extractelement %293[%c0 : index] : vector<1xf8E8M0FNU>
        %329 = amdgpu.scaled_mfma(%327[0] * %229) * (%328[0] * %261) + %326 {k = 128 : i32, m = 16 : i32, n = 16 : i32} : f8E8M0FNU, vector<32xf4E2M1FN>, f8E8M0FNU, vector<32xf4E2M1FN>, vector<4xf32>
        %330 = vector.extractelement %246[%c0 : index] : vector<1xf8E8M0FNU>
        %331 = vector.extractelement %294[%c0 : index] : vector<1xf8E8M0FNU>
        %332 = amdgpu.scaled_mfma(%330[0] * %230) * (%331[0] * %262) + %329 {k = 128 : i32, m = 16 : i32, n = 16 : i32} : f8E8M0FNU, vector<32xf4E2M1FN>, f8E8M0FNU, vector<32xf4E2M1FN>, vector<4xf32>
        %333 = vector.extractelement %247[%c0 : index] : vector<1xf8E8M0FNU>
        %334 = vector.extractelement %295[%c0 : index] : vector<1xf8E8M0FNU>
        %335 = amdgpu.scaled_mfma(%333[0] * %231) * (%334[0] * %263) + %332 {k = 128 : i32, m = 16 : i32, n = 16 : i32} : f8E8M0FNU, vector<32xf4E2M1FN>, f8E8M0FNU, vector<32xf4E2M1FN>, vector<4xf32>
        %336 = vector.extractelement %296[%c0 : index] : vector<1xf8E8M0FNU>
        %337 = amdgpu.scaled_mfma(%324[0] * %228) * (%336[0] * %264) + %111#1 {k = 128 : i32, m = 16 : i32, n = 16 : i32} : f8E8M0FNU, vector<32xf4E2M1FN>, f8E8M0FNU, vector<32xf4E2M1FN>, vector<4xf32>
        %338 = vector.extractelement %297[%c0 : index] : vector<1xf8E8M0FNU>
        %339 = amdgpu.scaled_mfma(%327[0] * %229) * (%338[0] * %265) + %337 {k = 128 : i32, m = 16 : i32, n = 16 : i32} : f8E8M0FNU, vector<32xf4E2M1FN>, f8E8M0FNU, vector<32xf4E2M1FN>, vector<4xf32>
        %340 = vector.extractelement %298[%c0 : index] : vector<1xf8E8M0FNU>
        %341 = amdgpu.scaled_mfma(%330[0] * %230) * (%340[0] * %266) + %339 {k = 128 : i32, m = 16 : i32, n = 16 : i32} : f8E8M0FNU, vector<32xf4E2M1FN>, f8E8M0FNU, vector<32xf4E2M1FN>, vector<4xf32>
        %342 = vector.extractelement %299[%c0 : index] : vector<1xf8E8M0FNU>
        %343 = amdgpu.scaled_mfma(%333[0] * %231) * (%342[0] * %267) + %341 {k = 128 : i32, m = 16 : i32, n = 16 : i32} : f8E8M0FNU, vector<32xf4E2M1FN>, f8E8M0FNU, vector<32xf4E2M1FN>, vector<4xf32>
        %344 = vector.extractelement %300[%c0 : index] : vector<1xf8E8M0FNU>
        %345 = amdgpu.scaled_mfma(%324[0] * %228) * (%344[0] * %268) + %111#2 {k = 128 : i32, m = 16 : i32, n = 16 : i32} : f8E8M0FNU, vector<32xf4E2M1FN>, f8E8M0FNU, vector<32xf4E2M1FN>, vector<4xf32>
        %346 = vector.extractelement %301[%c0 : index] : vector<1xf8E8M0FNU>
        %347 = amdgpu.scaled_mfma(%327[0] * %229) * (%346[0] * %269) + %345 {k = 128 : i32, m = 16 : i32, n = 16 : i32} : f8E8M0FNU, vector<32xf4E2M1FN>, f8E8M0FNU, vector<32xf4E2M1FN>, vector<4xf32>
        %348 = vector.extractelement %302[%c0 : index] : vector<1xf8E8M0FNU>
        %349 = amdgpu.scaled_mfma(%330[0] * %230) * (%348[0] * %270) + %347 {k = 128 : i32, m = 16 : i32, n = 16 : i32} : f8E8M0FNU, vector<32xf4E2M1FN>, f8E8M0FNU, vector<32xf4E2M1FN>, vector<4xf32>
        %350 = vector.extractelement %303[%c0 : index] : vector<1xf8E8M0FNU>
        %351 = amdgpu.scaled_mfma(%333[0] * %231) * (%350[0] * %271) + %349 {k = 128 : i32, m = 16 : i32, n = 16 : i32} : f8E8M0FNU, vector<32xf4E2M1FN>, f8E8M0FNU, vector<32xf4E2M1FN>, vector<4xf32>
        %352 = vector.extractelement %304[%c0 : index] : vector<1xf8E8M0FNU>
        %353 = amdgpu.scaled_mfma(%324[0] * %228) * (%352[0] * %272) + %111#3 {k = 128 : i32, m = 16 : i32, n = 16 : i32} : f8E8M0FNU, vector<32xf4E2M1FN>, f8E8M0FNU, vector<32xf4E2M1FN>, vector<4xf32>
        %354 = vector.extractelement %305[%c0 : index] : vector<1xf8E8M0FNU>
        %355 = amdgpu.scaled_mfma(%327[0] * %229) * (%354[0] * %273) + %353 {k = 128 : i32, m = 16 : i32, n = 16 : i32} : f8E8M0FNU, vector<32xf4E2M1FN>, f8E8M0FNU, vector<32xf4E2M1FN>, vector<4xf32>
        %356 = vector.extractelement %306[%c0 : index] : vector<1xf8E8M0FNU>
        %357 = amdgpu.scaled_mfma(%330[0] * %230) * (%356[0] * %274) + %355 {k = 128 : i32, m = 16 : i32, n = 16 : i32} : f8E8M0FNU, vector<32xf4E2M1FN>, f8E8M0FNU, vector<32xf4E2M1FN>, vector<4xf32>
        %358 = vector.extractelement %307[%c0 : index] : vector<1xf8E8M0FNU>
        %359 = amdgpu.scaled_mfma(%333[0] * %231) * (%358[0] * %275) + %357 {k = 128 : i32, m = 16 : i32, n = 16 : i32} : f8E8M0FNU, vector<32xf4E2M1FN>, f8E8M0FNU, vector<32xf4E2M1FN>, vector<4xf32>
        %360 = vector.extractelement %308[%c0 : index] : vector<1xf8E8M0FNU>
        %361 = amdgpu.scaled_mfma(%324[0] * %228) * (%360[0] * %276) + %111#4 {k = 128 : i32, m = 16 : i32, n = 16 : i32} : f8E8M0FNU, vector<32xf4E2M1FN>, f8E8M0FNU, vector<32xf4E2M1FN>, vector<4xf32>
        %362 = vector.extractelement %309[%c0 : index] : vector<1xf8E8M0FNU>
        %363 = amdgpu.scaled_mfma(%327[0] * %229) * (%362[0] * %277) + %361 {k = 128 : i32, m = 16 : i32, n = 16 : i32} : f8E8M0FNU, vector<32xf4E2M1FN>, f8E8M0FNU, vector<32xf4E2M1FN>, vector<4xf32>
        %364 = vector.extractelement %310[%c0 : index] : vector<1xf8E8M0FNU>
        %365 = amdgpu.scaled_mfma(%330[0] * %230) * (%364[0] * %278) + %363 {k = 128 : i32, m = 16 : i32, n = 16 : i32} : f8E8M0FNU, vector<32xf4E2M1FN>, f8E8M0FNU, vector<32xf4E2M1FN>, vector<4xf32>
        %366 = vector.extractelement %311[%c0 : index] : vector<1xf8E8M0FNU>
        %367 = amdgpu.scaled_mfma(%333[0] * %231) * (%366[0] * %279) + %365 {k = 128 : i32, m = 16 : i32, n = 16 : i32} : f8E8M0FNU, vector<32xf4E2M1FN>, f8E8M0FNU, vector<32xf4E2M1FN>, vector<4xf32>
        %368 = vector.extractelement %312[%c0 : index] : vector<1xf8E8M0FNU>
        %369 = amdgpu.scaled_mfma(%324[0] * %228) * (%368[0] * %280) + %111#5 {k = 128 : i32, m = 16 : i32, n = 16 : i32} : f8E8M0FNU, vector<32xf4E2M1FN>, f8E8M0FNU, vector<32xf4E2M1FN>, vector<4xf32>
        %370 = vector.extractelement %313[%c0 : index] : vector<1xf8E8M0FNU>
        %371 = amdgpu.scaled_mfma(%327[0] * %229) * (%370[0] * %281) + %369 {k = 128 : i32, m = 16 : i32, n = 16 : i32} : f8E8M0FNU, vector<32xf4E2M1FN>, f8E8M0FNU, vector<32xf4E2M1FN>, vector<4xf32>
        %372 = vector.extractelement %314[%c0 : index] : vector<1xf8E8M0FNU>
        %373 = amdgpu.scaled_mfma(%330[0] * %230) * (%372[0] * %282) + %371 {k = 128 : i32, m = 16 : i32, n = 16 : i32} : f8E8M0FNU, vector<32xf4E2M1FN>, f8E8M0FNU, vector<32xf4E2M1FN>, vector<4xf32>
        %374 = vector.extractelement %315[%c0 : index] : vector<1xf8E8M0FNU>
        %375 = amdgpu.scaled_mfma(%333[0] * %231) * (%374[0] * %283) + %373 {k = 128 : i32, m = 16 : i32, n = 16 : i32} : f8E8M0FNU, vector<32xf4E2M1FN>, f8E8M0FNU, vector<32xf4E2M1FN>, vector<4xf32>
        %376 = vector.extractelement %316[%c0 : index] : vector<1xf8E8M0FNU>
        %377 = amdgpu.scaled_mfma(%324[0] * %228) * (%376[0] * %284) + %111#6 {k = 128 : i32, m = 16 : i32, n = 16 : i32} : f8E8M0FNU, vector<32xf4E2M1FN>, f8E8M0FNU, vector<32xf4E2M1FN>, vector<4xf32>
        %378 = vector.extractelement %317[%c0 : index] : vector<1xf8E8M0FNU>
        %379 = amdgpu.scaled_mfma(%327[0] * %229) * (%378[0] * %285) + %377 {k = 128 : i32, m = 16 : i32, n = 16 : i32} : f8E8M0FNU, vector<32xf4E2M1FN>, f8E8M0FNU, vector<32xf4E2M1FN>, vector<4xf32>
        %380 = vector.extractelement %318[%c0 : index] : vector<1xf8E8M0FNU>
        %381 = amdgpu.scaled_mfma(%330[0] * %230) * (%380[0] * %286) + %379 {k = 128 : i32, m = 16 : i32, n = 16 : i32} : f8E8M0FNU, vector<32xf4E2M1FN>, f8E8M0FNU, vector<32xf4E2M1FN>, vector<4xf32>
        %382 = vector.extractelement %319[%c0 : index] : vector<1xf8E8M0FNU>
        %383 = amdgpu.scaled_mfma(%333[0] * %231) * (%382[0] * %287) + %381 {k = 128 : i32, m = 16 : i32, n = 16 : i32} : f8E8M0FNU, vector<32xf4E2M1FN>, f8E8M0FNU, vector<32xf4E2M1FN>, vector<4xf32>
        %384 = vector.extractelement %320[%c0 : index] : vector<1xf8E8M0FNU>
        %385 = amdgpu.scaled_mfma(%324[0] * %228) * (%384[0] * %288) + %111#7 {k = 128 : i32, m = 16 : i32, n = 16 : i32} : f8E8M0FNU, vector<32xf4E2M1FN>, f8E8M0FNU, vector<32xf4E2M1FN>, vector<4xf32>
        %386 = vector.extractelement %321[%c0 : index] : vector<1xf8E8M0FNU>
        %387 = amdgpu.scaled_mfma(%327[0] * %229) * (%386[0] * %289) + %385 {k = 128 : i32, m = 16 : i32, n = 16 : i32} : f8E8M0FNU, vector<32xf4E2M1FN>, f8E8M0FNU, vector<32xf4E2M1FN>, vector<4xf32>
        %388 = vector.extractelement %322[%c0 : index] : vector<1xf8E8M0FNU>
        %389 = amdgpu.scaled_mfma(%330[0] * %230) * (%388[0] * %290) + %387 {k = 128 : i32, m = 16 : i32, n = 16 : i32} : f8E8M0FNU, vector<32xf4E2M1FN>, f8E8M0FNU, vector<32xf4E2M1FN>, vector<4xf32>
        %390 = vector.extractelement %323[%c0 : index] : vector<1xf8E8M0FNU>
        %391 = amdgpu.scaled_mfma(%333[0] * %231) * (%390[0] * %291) + %389 {k = 128 : i32, m = 16 : i32, n = 16 : i32} : f8E8M0FNU, vector<32xf4E2M1FN>, f8E8M0FNU, vector<32xf4E2M1FN>, vector<4xf32>
        %392 = vector.extractelement %248[%c0 : index] : vector<1xf8E8M0FNU>
        %393 = amdgpu.scaled_mfma(%392[0] * %232) * (%325[0] * %260) + %111#8 {k = 128 : i32, m = 16 : i32, n = 16 : i32} : f8E8M0FNU, vector<32xf4E2M1FN>, f8E8M0FNU, vector<32xf4E2M1FN>, vector<4xf32>
        %394 = vector.extractelement %249[%c0 : index] : vector<1xf8E8M0FNU>
        %395 = amdgpu.scaled_mfma(%394[0] * %233) * (%328[0] * %261) + %393 {k = 128 : i32, m = 16 : i32, n = 16 : i32} : f8E8M0FNU, vector<32xf4E2M1FN>, f8E8M0FNU, vector<32xf4E2M1FN>, vector<4xf32>
        %396 = vector.extractelement %250[%c0 : index] : vector<1xf8E8M0FNU>
        %397 = amdgpu.scaled_mfma(%396[0] * %234) * (%331[0] * %262) + %395 {k = 128 : i32, m = 16 : i32, n = 16 : i32} : f8E8M0FNU, vector<32xf4E2M1FN>, f8E8M0FNU, vector<32xf4E2M1FN>, vector<4xf32>
        %398 = vector.extractelement %251[%c0 : index] : vector<1xf8E8M0FNU>
        %399 = amdgpu.scaled_mfma(%398[0] * %235) * (%334[0] * %263) + %397 {k = 128 : i32, m = 16 : i32, n = 16 : i32} : f8E8M0FNU, vector<32xf4E2M1FN>, f8E8M0FNU, vector<32xf4E2M1FN>, vector<4xf32>
        %400 = amdgpu.scaled_mfma(%392[0] * %232) * (%336[0] * %264) + %111#9 {k = 128 : i32, m = 16 : i32, n = 16 : i32} : f8E8M0FNU, vector<32xf4E2M1FN>, f8E8M0FNU, vector<32xf4E2M1FN>, vector<4xf32>
        %401 = amdgpu.scaled_mfma(%394[0] * %233) * (%338[0] * %265) + %400 {k = 128 : i32, m = 16 : i32, n = 16 : i32} : f8E8M0FNU, vector<32xf4E2M1FN>, f8E8M0FNU, vector<32xf4E2M1FN>, vector<4xf32>
        %402 = amdgpu.scaled_mfma(%396[0] * %234) * (%340[0] * %266) + %401 {k = 128 : i32, m = 16 : i32, n = 16 : i32} : f8E8M0FNU, vector<32xf4E2M1FN>, f8E8M0FNU, vector<32xf4E2M1FN>, vector<4xf32>
        %403 = amdgpu.scaled_mfma(%398[0] * %235) * (%342[0] * %267) + %402 {k = 128 : i32, m = 16 : i32, n = 16 : i32} : f8E8M0FNU, vector<32xf4E2M1FN>, f8E8M0FNU, vector<32xf4E2M1FN>, vector<4xf32>
        %404 = amdgpu.scaled_mfma(%392[0] * %232) * (%344[0] * %268) + %111#10 {k = 128 : i32, m = 16 : i32, n = 16 : i32} : f8E8M0FNU, vector<32xf4E2M1FN>, f8E8M0FNU, vector<32xf4E2M1FN>, vector<4xf32>
        %405 = amdgpu.scaled_mfma(%394[0] * %233) * (%346[0] * %269) + %404 {k = 128 : i32, m = 16 : i32, n = 16 : i32} : f8E8M0FNU, vector<32xf4E2M1FN>, f8E8M0FNU, vector<32xf4E2M1FN>, vector<4xf32>
        %406 = amdgpu.scaled_mfma(%396[0] * %234) * (%348[0] * %270) + %405 {k = 128 : i32, m = 16 : i32, n = 16 : i32} : f8E8M0FNU, vector<32xf4E2M1FN>, f8E8M0FNU, vector<32xf4E2M1FN>, vector<4xf32>
        %407 = amdgpu.scaled_mfma(%398[0] * %235) * (%350[0] * %271) + %406 {k = 128 : i32, m = 16 : i32, n = 16 : i32} : f8E8M0FNU, vector<32xf4E2M1FN>, f8E8M0FNU, vector<32xf4E2M1FN>, vector<4xf32>
        %408 = amdgpu.scaled_mfma(%392[0] * %232) * (%352[0] * %272) + %111#11 {k = 128 : i32, m = 16 : i32, n = 16 : i32} : f8E8M0FNU, vector<32xf4E2M1FN>, f8E8M0FNU, vector<32xf4E2M1FN>, vector<4xf32>
        %409 = amdgpu.scaled_mfma(%394[0] * %233) * (%354[0] * %273) + %408 {k = 128 : i32, m = 16 : i32, n = 16 : i32} : f8E8M0FNU, vector<32xf4E2M1FN>, f8E8M0FNU, vector<32xf4E2M1FN>, vector<4xf32>
        %410 = amdgpu.scaled_mfma(%396[0] * %234) * (%356[0] * %274) + %409 {k = 128 : i32, m = 16 : i32, n = 16 : i32} : f8E8M0FNU, vector<32xf4E2M1FN>, f8E8M0FNU, vector<32xf4E2M1FN>, vector<4xf32>
        %411 = amdgpu.scaled_mfma(%398[0] * %235) * (%358[0] * %275) + %410 {k = 128 : i32, m = 16 : i32, n = 16 : i32} : f8E8M0FNU, vector<32xf4E2M1FN>, f8E8M0FNU, vector<32xf4E2M1FN>, vector<4xf32>
        %412 = amdgpu.scaled_mfma(%392[0] * %232) * (%360[0] * %276) + %111#12 {k = 128 : i32, m = 16 : i32, n = 16 : i32} : f8E8M0FNU, vector<32xf4E2M1FN>, f8E8M0FNU, vector<32xf4E2M1FN>, vector<4xf32>
        %413 = amdgpu.scaled_mfma(%394[0] * %233) * (%362[0] * %277) + %412 {k = 128 : i32, m = 16 : i32, n = 16 : i32} : f8E8M0FNU, vector<32xf4E2M1FN>, f8E8M0FNU, vector<32xf4E2M1FN>, vector<4xf32>
        %414 = amdgpu.scaled_mfma(%396[0] * %234) * (%364[0] * %278) + %413 {k = 128 : i32, m = 16 : i32, n = 16 : i32} : f8E8M0FNU, vector<32xf4E2M1FN>, f8E8M0FNU, vector<32xf4E2M1FN>, vector<4xf32>
        %415 = amdgpu.scaled_mfma(%398[0] * %235) * (%366[0] * %279) + %414 {k = 128 : i32, m = 16 : i32, n = 16 : i32} : f8E8M0FNU, vector<32xf4E2M1FN>, f8E8M0FNU, vector<32xf4E2M1FN>, vector<4xf32>
        %416 = amdgpu.scaled_mfma(%392[0] * %232) * (%368[0] * %280) + %111#13 {k = 128 : i32, m = 16 : i32, n = 16 : i32} : f8E8M0FNU, vector<32xf4E2M1FN>, f8E8M0FNU, vector<32xf4E2M1FN>, vector<4xf32>
        %417 = amdgpu.scaled_mfma(%394[0] * %233) * (%370[0] * %281) + %416 {k = 128 : i32, m = 16 : i32, n = 16 : i32} : f8E8M0FNU, vector<32xf4E2M1FN>, f8E8M0FNU, vector<32xf4E2M1FN>, vector<4xf32>
        %418 = amdgpu.scaled_mfma(%396[0] * %234) * (%372[0] * %282) + %417 {k = 128 : i32, m = 16 : i32, n = 16 : i32} : f8E8M0FNU, vector<32xf4E2M1FN>, f8E8M0FNU, vector<32xf4E2M1FN>, vector<4xf32>
        %419 = amdgpu.scaled_mfma(%398[0] * %235) * (%374[0] * %283) + %418 {k = 128 : i32, m = 16 : i32, n = 16 : i32} : f8E8M0FNU, vector<32xf4E2M1FN>, f8E8M0FNU, vector<32xf4E2M1FN>, vector<4xf32>
        %420 = amdgpu.scaled_mfma(%392[0] * %232) * (%376[0] * %284) + %111#14 {k = 128 : i32, m = 16 : i32, n = 16 : i32} : f8E8M0FNU, vector<32xf4E2M1FN>, f8E8M0FNU, vector<32xf4E2M1FN>, vector<4xf32>
        %421 = amdgpu.scaled_mfma(%394[0] * %233) * (%378[0] * %285) + %420 {k = 128 : i32, m = 16 : i32, n = 16 : i32} : f8E8M0FNU, vector<32xf4E2M1FN>, f8E8M0FNU, vector<32xf4E2M1FN>, vector<4xf32>
        %422 = amdgpu.scaled_mfma(%396[0] * %234) * (%380[0] * %286) + %421 {k = 128 : i32, m = 16 : i32, n = 16 : i32} : f8E8M0FNU, vector<32xf4E2M1FN>, f8E8M0FNU, vector<32xf4E2M1FN>, vector<4xf32>
        %423 = amdgpu.scaled_mfma(%398[0] * %235) * (%382[0] * %287) + %422 {k = 128 : i32, m = 16 : i32, n = 16 : i32} : f8E8M0FNU, vector<32xf4E2M1FN>, f8E8M0FNU, vector<32xf4E2M1FN>, vector<4xf32>
        %424 = amdgpu.scaled_mfma(%392[0] * %232) * (%384[0] * %288) + %111#15 {k = 128 : i32, m = 16 : i32, n = 16 : i32} : f8E8M0FNU, vector<32xf4E2M1FN>, f8E8M0FNU, vector<32xf4E2M1FN>, vector<4xf32>
        %425 = amdgpu.scaled_mfma(%394[0] * %233) * (%386[0] * %289) + %424 {k = 128 : i32, m = 16 : i32, n = 16 : i32} : f8E8M0FNU, vector<32xf4E2M1FN>, f8E8M0FNU, vector<32xf4E2M1FN>, vector<4xf32>
        %426 = amdgpu.scaled_mfma(%396[0] * %234) * (%388[0] * %290) + %425 {k = 128 : i32, m = 16 : i32, n = 16 : i32} : f8E8M0FNU, vector<32xf4E2M1FN>, f8E8M0FNU, vector<32xf4E2M1FN>, vector<4xf32>
        %427 = amdgpu.scaled_mfma(%398[0] * %235) * (%390[0] * %291) + %426 {k = 128 : i32, m = 16 : i32, n = 16 : i32} : f8E8M0FNU, vector<32xf4E2M1FN>, f8E8M0FNU, vector<32xf4E2M1FN>, vector<4xf32>
        %428 = vector.extractelement %252[%c0 : index] : vector<1xf8E8M0FNU>
        %429 = amdgpu.scaled_mfma(%428[0] * %236) * (%325[0] * %260) + %111#16 {k = 128 : i32, m = 16 : i32, n = 16 : i32} : f8E8M0FNU, vector<32xf4E2M1FN>, f8E8M0FNU, vector<32xf4E2M1FN>, vector<4xf32>
        %430 = vector.extractelement %253[%c0 : index] : vector<1xf8E8M0FNU>
        %431 = amdgpu.scaled_mfma(%430[0] * %237) * (%328[0] * %261) + %429 {k = 128 : i32, m = 16 : i32, n = 16 : i32} : f8E8M0FNU, vector<32xf4E2M1FN>, f8E8M0FNU, vector<32xf4E2M1FN>, vector<4xf32>
        %432 = vector.extractelement %254[%c0 : index] : vector<1xf8E8M0FNU>
        %433 = amdgpu.scaled_mfma(%432[0] * %238) * (%331[0] * %262) + %431 {k = 128 : i32, m = 16 : i32, n = 16 : i32} : f8E8M0FNU, vector<32xf4E2M1FN>, f8E8M0FNU, vector<32xf4E2M1FN>, vector<4xf32>
        %434 = vector.extractelement %255[%c0 : index] : vector<1xf8E8M0FNU>
        %435 = amdgpu.scaled_mfma(%434[0] * %239) * (%334[0] * %263) + %433 {k = 128 : i32, m = 16 : i32, n = 16 : i32} : f8E8M0FNU, vector<32xf4E2M1FN>, f8E8M0FNU, vector<32xf4E2M1FN>, vector<4xf32>
        %436 = amdgpu.scaled_mfma(%428[0] * %236) * (%336[0] * %264) + %111#17 {k = 128 : i32, m = 16 : i32, n = 16 : i32} : f8E8M0FNU, vector<32xf4E2M1FN>, f8E8M0FNU, vector<32xf4E2M1FN>, vector<4xf32>
        %437 = amdgpu.scaled_mfma(%430[0] * %237) * (%338[0] * %265) + %436 {k = 128 : i32, m = 16 : i32, n = 16 : i32} : f8E8M0FNU, vector<32xf4E2M1FN>, f8E8M0FNU, vector<32xf4E2M1FN>, vector<4xf32>
        %438 = amdgpu.scaled_mfma(%432[0] * %238) * (%340[0] * %266) + %437 {k = 128 : i32, m = 16 : i32, n = 16 : i32} : f8E8M0FNU, vector<32xf4E2M1FN>, f8E8M0FNU, vector<32xf4E2M1FN>, vector<4xf32>
        %439 = amdgpu.scaled_mfma(%434[0] * %239) * (%342[0] * %267) + %438 {k = 128 : i32, m = 16 : i32, n = 16 : i32} : f8E8M0FNU, vector<32xf4E2M1FN>, f8E8M0FNU, vector<32xf4E2M1FN>, vector<4xf32>
        %440 = amdgpu.scaled_mfma(%428[0] * %236) * (%344[0] * %268) + %111#18 {k = 128 : i32, m = 16 : i32, n = 16 : i32} : f8E8M0FNU, vector<32xf4E2M1FN>, f8E8M0FNU, vector<32xf4E2M1FN>, vector<4xf32>
        %441 = amdgpu.scaled_mfma(%430[0] * %237) * (%346[0] * %269) + %440 {k = 128 : i32, m = 16 : i32, n = 16 : i32} : f8E8M0FNU, vector<32xf4E2M1FN>, f8E8M0FNU, vector<32xf4E2M1FN>, vector<4xf32>
        %442 = amdgpu.scaled_mfma(%432[0] * %238) * (%348[0] * %270) + %441 {k = 128 : i32, m = 16 : i32, n = 16 : i32} : f8E8M0FNU, vector<32xf4E2M1FN>, f8E8M0FNU, vector<32xf4E2M1FN>, vector<4xf32>
        %443 = amdgpu.scaled_mfma(%434[0] * %239) * (%350[0] * %271) + %442 {k = 128 : i32, m = 16 : i32, n = 16 : i32} : f8E8M0FNU, vector<32xf4E2M1FN>, f8E8M0FNU, vector<32xf4E2M1FN>, vector<4xf32>
        %444 = amdgpu.scaled_mfma(%428[0] * %236) * (%352[0] * %272) + %111#19 {k = 128 : i32, m = 16 : i32, n = 16 : i32} : f8E8M0FNU, vector<32xf4E2M1FN>, f8E8M0FNU, vector<32xf4E2M1FN>, vector<4xf32>
        %445 = amdgpu.scaled_mfma(%430[0] * %237) * (%354[0] * %273) + %444 {k = 128 : i32, m = 16 : i32, n = 16 : i32} : f8E8M0FNU, vector<32xf4E2M1FN>, f8E8M0FNU, vector<32xf4E2M1FN>, vector<4xf32>
        %446 = amdgpu.scaled_mfma(%432[0] * %238) * (%356[0] * %274) + %445 {k = 128 : i32, m = 16 : i32, n = 16 : i32} : f8E8M0FNU, vector<32xf4E2M1FN>, f8E8M0FNU, vector<32xf4E2M1FN>, vector<4xf32>
        %447 = amdgpu.scaled_mfma(%434[0] * %239) * (%358[0] * %275) + %446 {k = 128 : i32, m = 16 : i32, n = 16 : i32} : f8E8M0FNU, vector<32xf4E2M1FN>, f8E8M0FNU, vector<32xf4E2M1FN>, vector<4xf32>
        %448 = amdgpu.scaled_mfma(%428[0] * %236) * (%360[0] * %276) + %111#20 {k = 128 : i32, m = 16 : i32, n = 16 : i32} : f8E8M0FNU, vector<32xf4E2M1FN>, f8E8M0FNU, vector<32xf4E2M1FN>, vector<4xf32>
        %449 = amdgpu.scaled_mfma(%430[0] * %237) * (%362[0] * %277) + %448 {k = 128 : i32, m = 16 : i32, n = 16 : i32} : f8E8M0FNU, vector<32xf4E2M1FN>, f8E8M0FNU, vector<32xf4E2M1FN>, vector<4xf32>
        %450 = amdgpu.scaled_mfma(%432[0] * %238) * (%364[0] * %278) + %449 {k = 128 : i32, m = 16 : i32, n = 16 : i32} : f8E8M0FNU, vector<32xf4E2M1FN>, f8E8M0FNU, vector<32xf4E2M1FN>, vector<4xf32>
        %451 = amdgpu.scaled_mfma(%434[0] * %239) * (%366[0] * %279) + %450 {k = 128 : i32, m = 16 : i32, n = 16 : i32} : f8E8M0FNU, vector<32xf4E2M1FN>, f8E8M0FNU, vector<32xf4E2M1FN>, vector<4xf32>
        %452 = amdgpu.scaled_mfma(%428[0] * %236) * (%368[0] * %280) + %111#21 {k = 128 : i32, m = 16 : i32, n = 16 : i32} : f8E8M0FNU, vector<32xf4E2M1FN>, f8E8M0FNU, vector<32xf4E2M1FN>, vector<4xf32>
        %453 = amdgpu.scaled_mfma(%430[0] * %237) * (%370[0] * %281) + %452 {k = 128 : i32, m = 16 : i32, n = 16 : i32} : f8E8M0FNU, vector<32xf4E2M1FN>, f8E8M0FNU, vector<32xf4E2M1FN>, vector<4xf32>
        %454 = amdgpu.scaled_mfma(%432[0] * %238) * (%372[0] * %282) + %453 {k = 128 : i32, m = 16 : i32, n = 16 : i32} : f8E8M0FNU, vector<32xf4E2M1FN>, f8E8M0FNU, vector<32xf4E2M1FN>, vector<4xf32>
        %455 = amdgpu.scaled_mfma(%434[0] * %239) * (%374[0] * %283) + %454 {k = 128 : i32, m = 16 : i32, n = 16 : i32} : f8E8M0FNU, vector<32xf4E2M1FN>, f8E8M0FNU, vector<32xf4E2M1FN>, vector<4xf32>
        %456 = amdgpu.scaled_mfma(%428[0] * %236) * (%376[0] * %284) + %111#22 {k = 128 : i32, m = 16 : i32, n = 16 : i32} : f8E8M0FNU, vector<32xf4E2M1FN>, f8E8M0FNU, vector<32xf4E2M1FN>, vector<4xf32>
        %457 = amdgpu.scaled_mfma(%430[0] * %237) * (%378[0] * %285) + %456 {k = 128 : i32, m = 16 : i32, n = 16 : i32} : f8E8M0FNU, vector<32xf4E2M1FN>, f8E8M0FNU, vector<32xf4E2M1FN>, vector<4xf32>
        %458 = amdgpu.scaled_mfma(%432[0] * %238) * (%380[0] * %286) + %457 {k = 128 : i32, m = 16 : i32, n = 16 : i32} : f8E8M0FNU, vector<32xf4E2M1FN>, f8E8M0FNU, vector<32xf4E2M1FN>, vector<4xf32>
        %459 = amdgpu.scaled_mfma(%434[0] * %239) * (%382[0] * %287) + %458 {k = 128 : i32, m = 16 : i32, n = 16 : i32} : f8E8M0FNU, vector<32xf4E2M1FN>, f8E8M0FNU, vector<32xf4E2M1FN>, vector<4xf32>
        %460 = amdgpu.scaled_mfma(%428[0] * %236) * (%384[0] * %288) + %111#23 {k = 128 : i32, m = 16 : i32, n = 16 : i32} : f8E8M0FNU, vector<32xf4E2M1FN>, f8E8M0FNU, vector<32xf4E2M1FN>, vector<4xf32>
        %461 = amdgpu.scaled_mfma(%430[0] * %237) * (%386[0] * %289) + %460 {k = 128 : i32, m = 16 : i32, n = 16 : i32} : f8E8M0FNU, vector<32xf4E2M1FN>, f8E8M0FNU, vector<32xf4E2M1FN>, vector<4xf32>
        %462 = amdgpu.scaled_mfma(%432[0] * %238) * (%388[0] * %290) + %461 {k = 128 : i32, m = 16 : i32, n = 16 : i32} : f8E8M0FNU, vector<32xf4E2M1FN>, f8E8M0FNU, vector<32xf4E2M1FN>, vector<4xf32>
        %463 = amdgpu.scaled_mfma(%434[0] * %239) * (%390[0] * %291) + %462 {k = 128 : i32, m = 16 : i32, n = 16 : i32} : f8E8M0FNU, vector<32xf4E2M1FN>, f8E8M0FNU, vector<32xf4E2M1FN>, vector<4xf32>
        %464 = vector.extractelement %256[%c0 : index] : vector<1xf8E8M0FNU>
        %465 = amdgpu.scaled_mfma(%464[0] * %240) * (%325[0] * %260) + %111#24 {k = 128 : i32, m = 16 : i32, n = 16 : i32} : f8E8M0FNU, vector<32xf4E2M1FN>, f8E8M0FNU, vector<32xf4E2M1FN>, vector<4xf32>
        %466 = vector.extractelement %257[%c0 : index] : vector<1xf8E8M0FNU>
        %467 = amdgpu.scaled_mfma(%466[0] * %241) * (%328[0] * %261) + %465 {k = 128 : i32, m = 16 : i32, n = 16 : i32} : f8E8M0FNU, vector<32xf4E2M1FN>, f8E8M0FNU, vector<32xf4E2M1FN>, vector<4xf32>
        %468 = vector.extractelement %258[%c0 : index] : vector<1xf8E8M0FNU>
        %469 = amdgpu.scaled_mfma(%468[0] * %242) * (%331[0] * %262) + %467 {k = 128 : i32, m = 16 : i32, n = 16 : i32} : f8E8M0FNU, vector<32xf4E2M1FN>, f8E8M0FNU, vector<32xf4E2M1FN>, vector<4xf32>
        %470 = vector.extractelement %259[%c0 : index] : vector<1xf8E8M0FNU>
        %471 = amdgpu.scaled_mfma(%470[0] * %243) * (%334[0] * %263) + %469 {k = 128 : i32, m = 16 : i32, n = 16 : i32} : f8E8M0FNU, vector<32xf4E2M1FN>, f8E8M0FNU, vector<32xf4E2M1FN>, vector<4xf32>
        %472 = amdgpu.scaled_mfma(%464[0] * %240) * (%336[0] * %264) + %111#25 {k = 128 : i32, m = 16 : i32, n = 16 : i32} : f8E8M0FNU, vector<32xf4E2M1FN>, f8E8M0FNU, vector<32xf4E2M1FN>, vector<4xf32>
        %473 = amdgpu.scaled_mfma(%466[0] * %241) * (%338[0] * %265) + %472 {k = 128 : i32, m = 16 : i32, n = 16 : i32} : f8E8M0FNU, vector<32xf4E2M1FN>, f8E8M0FNU, vector<32xf4E2M1FN>, vector<4xf32>
        %474 = amdgpu.scaled_mfma(%468[0] * %242) * (%340[0] * %266) + %473 {k = 128 : i32, m = 16 : i32, n = 16 : i32} : f8E8M0FNU, vector<32xf4E2M1FN>, f8E8M0FNU, vector<32xf4E2M1FN>, vector<4xf32>
        %475 = amdgpu.scaled_mfma(%470[0] * %243) * (%342[0] * %267) + %474 {k = 128 : i32, m = 16 : i32, n = 16 : i32} : f8E8M0FNU, vector<32xf4E2M1FN>, f8E8M0FNU, vector<32xf4E2M1FN>, vector<4xf32>
        %476 = amdgpu.scaled_mfma(%464[0] * %240) * (%344[0] * %268) + %111#26 {k = 128 : i32, m = 16 : i32, n = 16 : i32} : f8E8M0FNU, vector<32xf4E2M1FN>, f8E8M0FNU, vector<32xf4E2M1FN>, vector<4xf32>
        %477 = amdgpu.scaled_mfma(%466[0] * %241) * (%346[0] * %269) + %476 {k = 128 : i32, m = 16 : i32, n = 16 : i32} : f8E8M0FNU, vector<32xf4E2M1FN>, f8E8M0FNU, vector<32xf4E2M1FN>, vector<4xf32>
        %478 = amdgpu.scaled_mfma(%468[0] * %242) * (%348[0] * %270) + %477 {k = 128 : i32, m = 16 : i32, n = 16 : i32} : f8E8M0FNU, vector<32xf4E2M1FN>, f8E8M0FNU, vector<32xf4E2M1FN>, vector<4xf32>
        %479 = amdgpu.scaled_mfma(%470[0] * %243) * (%350[0] * %271) + %478 {k = 128 : i32, m = 16 : i32, n = 16 : i32} : f8E8M0FNU, vector<32xf4E2M1FN>, f8E8M0FNU, vector<32xf4E2M1FN>, vector<4xf32>
        %480 = amdgpu.scaled_mfma(%464[0] * %240) * (%352[0] * %272) + %111#27 {k = 128 : i32, m = 16 : i32, n = 16 : i32} : f8E8M0FNU, vector<32xf4E2M1FN>, f8E8M0FNU, vector<32xf4E2M1FN>, vector<4xf32>
        %481 = amdgpu.scaled_mfma(%466[0] * %241) * (%354[0] * %273) + %480 {k = 128 : i32, m = 16 : i32, n = 16 : i32} : f8E8M0FNU, vector<32xf4E2M1FN>, f8E8M0FNU, vector<32xf4E2M1FN>, vector<4xf32>
        %482 = amdgpu.scaled_mfma(%468[0] * %242) * (%356[0] * %274) + %481 {k = 128 : i32, m = 16 : i32, n = 16 : i32} : f8E8M0FNU, vector<32xf4E2M1FN>, f8E8M0FNU, vector<32xf4E2M1FN>, vector<4xf32>
        %483 = amdgpu.scaled_mfma(%470[0] * %243) * (%358[0] * %275) + %482 {k = 128 : i32, m = 16 : i32, n = 16 : i32} : f8E8M0FNU, vector<32xf4E2M1FN>, f8E8M0FNU, vector<32xf4E2M1FN>, vector<4xf32>
        %484 = amdgpu.scaled_mfma(%464[0] * %240) * (%360[0] * %276) + %111#28 {k = 128 : i32, m = 16 : i32, n = 16 : i32} : f8E8M0FNU, vector<32xf4E2M1FN>, f8E8M0FNU, vector<32xf4E2M1FN>, vector<4xf32>
        %485 = amdgpu.scaled_mfma(%466[0] * %241) * (%362[0] * %277) + %484 {k = 128 : i32, m = 16 : i32, n = 16 : i32} : f8E8M0FNU, vector<32xf4E2M1FN>, f8E8M0FNU, vector<32xf4E2M1FN>, vector<4xf32>
        %486 = amdgpu.scaled_mfma(%468[0] * %242) * (%364[0] * %278) + %485 {k = 128 : i32, m = 16 : i32, n = 16 : i32} : f8E8M0FNU, vector<32xf4E2M1FN>, f8E8M0FNU, vector<32xf4E2M1FN>, vector<4xf32>
        %487 = amdgpu.scaled_mfma(%470[0] * %243) * (%366[0] * %279) + %486 {k = 128 : i32, m = 16 : i32, n = 16 : i32} : f8E8M0FNU, vector<32xf4E2M1FN>, f8E8M0FNU, vector<32xf4E2M1FN>, vector<4xf32>
        %488 = amdgpu.scaled_mfma(%464[0] * %240) * (%368[0] * %280) + %111#29 {k = 128 : i32, m = 16 : i32, n = 16 : i32} : f8E8M0FNU, vector<32xf4E2M1FN>, f8E8M0FNU, vector<32xf4E2M1FN>, vector<4xf32>
        %489 = amdgpu.scaled_mfma(%466[0] * %241) * (%370[0] * %281) + %488 {k = 128 : i32, m = 16 : i32, n = 16 : i32} : f8E8M0FNU, vector<32xf4E2M1FN>, f8E8M0FNU, vector<32xf4E2M1FN>, vector<4xf32>
        %490 = amdgpu.scaled_mfma(%468[0] * %242) * (%372[0] * %282) + %489 {k = 128 : i32, m = 16 : i32, n = 16 : i32} : f8E8M0FNU, vector<32xf4E2M1FN>, f8E8M0FNU, vector<32xf4E2M1FN>, vector<4xf32>
        %491 = amdgpu.scaled_mfma(%470[0] * %243) * (%374[0] * %283) + %490 {k = 128 : i32, m = 16 : i32, n = 16 : i32} : f8E8M0FNU, vector<32xf4E2M1FN>, f8E8M0FNU, vector<32xf4E2M1FN>, vector<4xf32>
        %492 = amdgpu.scaled_mfma(%464[0] * %240) * (%376[0] * %284) + %111#30 {k = 128 : i32, m = 16 : i32, n = 16 : i32} : f8E8M0FNU, vector<32xf4E2M1FN>, f8E8M0FNU, vector<32xf4E2M1FN>, vector<4xf32>
        %493 = amdgpu.scaled_mfma(%466[0] * %241) * (%378[0] * %285) + %492 {k = 128 : i32, m = 16 : i32, n = 16 : i32} : f8E8M0FNU, vector<32xf4E2M1FN>, f8E8M0FNU, vector<32xf4E2M1FN>, vector<4xf32>
        %494 = amdgpu.scaled_mfma(%468[0] * %242) * (%380[0] * %286) + %493 {k = 128 : i32, m = 16 : i32, n = 16 : i32} : f8E8M0FNU, vector<32xf4E2M1FN>, f8E8M0FNU, vector<32xf4E2M1FN>, vector<4xf32>
        %495 = amdgpu.scaled_mfma(%470[0] * %243) * (%382[0] * %287) + %494 {k = 128 : i32, m = 16 : i32, n = 16 : i32} : f8E8M0FNU, vector<32xf4E2M1FN>, f8E8M0FNU, vector<32xf4E2M1FN>, vector<4xf32>
        %496 = amdgpu.scaled_mfma(%464[0] * %240) * (%384[0] * %288) + %111#31 {k = 128 : i32, m = 16 : i32, n = 16 : i32} : f8E8M0FNU, vector<32xf4E2M1FN>, f8E8M0FNU, vector<32xf4E2M1FN>, vector<4xf32>
        %497 = amdgpu.scaled_mfma(%466[0] * %241) * (%386[0] * %289) + %496 {k = 128 : i32, m = 16 : i32, n = 16 : i32} : f8E8M0FNU, vector<32xf4E2M1FN>, f8E8M0FNU, vector<32xf4E2M1FN>, vector<4xf32>
        %498 = amdgpu.scaled_mfma(%468[0] * %242) * (%388[0] * %290) + %497 {k = 128 : i32, m = 16 : i32, n = 16 : i32} : f8E8M0FNU, vector<32xf4E2M1FN>, f8E8M0FNU, vector<32xf4E2M1FN>, vector<4xf32>
        %499 = amdgpu.scaled_mfma(%470[0] * %243) * (%390[0] * %291) + %498 {k = 128 : i32, m = 16 : i32, n = 16 : i32} : f8E8M0FNU, vector<32xf4E2M1FN>, f8E8M0FNU, vector<32xf4E2M1FN>, vector<4xf32>
        %500 = arith.truncf %335 : vector<4xf32> to vector<4xbf16>
        %501 = arith.truncf %343 : vector<4xf32> to vector<4xbf16>
        %502 = arith.truncf %351 : vector<4xf32> to vector<4xbf16>
        %503 = arith.truncf %359 : vector<4xf32> to vector<4xbf16>
        %504 = arith.truncf %367 : vector<4xf32> to vector<4xbf16>
        %505 = arith.truncf %375 : vector<4xf32> to vector<4xbf16>
        %506 = arith.truncf %383 : vector<4xf32> to vector<4xbf16>
        %507 = arith.truncf %391 : vector<4xf32> to vector<4xbf16>
        %508 = arith.truncf %399 : vector<4xf32> to vector<4xbf16>
        %509 = arith.truncf %403 : vector<4xf32> to vector<4xbf16>
        %510 = arith.truncf %407 : vector<4xf32> to vector<4xbf16>
        %511 = arith.truncf %411 : vector<4xf32> to vector<4xbf16>
        %512 = arith.truncf %415 : vector<4xf32> to vector<4xbf16>
        %513 = arith.truncf %419 : vector<4xf32> to vector<4xbf16>
        %514 = arith.truncf %423 : vector<4xf32> to vector<4xbf16>
        %515 = arith.truncf %427 : vector<4xf32> to vector<4xbf16>
        %516 = arith.truncf %435 : vector<4xf32> to vector<4xbf16>
        %517 = arith.truncf %439 : vector<4xf32> to vector<4xbf16>
        %518 = arith.truncf %443 : vector<4xf32> to vector<4xbf16>
        %519 = arith.truncf %447 : vector<4xf32> to vector<4xbf16>
        %520 = arith.truncf %451 : vector<4xf32> to vector<4xbf16>
        %521 = arith.truncf %455 : vector<4xf32> to vector<4xbf16>
        %522 = arith.truncf %459 : vector<4xf32> to vector<4xbf16>
        %523 = arith.truncf %463 : vector<4xf32> to vector<4xbf16>
        %524 = arith.truncf %471 : vector<4xf32> to vector<4xbf16>
        %525 = arith.truncf %475 : vector<4xf32> to vector<4xbf16>
        %526 = arith.truncf %479 : vector<4xf32> to vector<4xbf16>
        %527 = arith.truncf %483 : vector<4xf32> to vector<4xbf16>
        %528 = arith.truncf %487 : vector<4xf32> to vector<4xbf16>
        %529 = arith.truncf %491 : vector<4xf32> to vector<4xbf16>
        %530 = arith.truncf %495 : vector<4xf32> to vector<4xbf16>
        %531 = arith.truncf %499 : vector<4xf32> to vector<4xbf16>
        %532 = vector.extract_strided_slice %500 {offsets = [0], sizes = [1], strides = [1]} : vector<4xbf16> to vector<1xbf16>
        %533 = stream.binding.subspan %arg4[%c0] : !stream.binding -> memref<16384x16384xbf16, strided<[16384, 1], offset: ?>>
        %534 = affine.apply #map42()[%block_id_x]
        %535 = affine.apply #map42()[%block_id_y]
        %536 = affine.apply #map43()[%thread_id_x]
        %537 = arith.muli %534, %c16384 overflow<nsw> : index
        %538 = arith.muli %536, %c16384 overflow<nsw> : index
        %539 = arith.addi %537, %535 overflow<nsw> : index
        %540 = arith.addi %538, %112 overflow<nsw> : index
        %reinterpret_cast_6 = memref.reinterpret_cast %533 to offset: [%539], sizes: [%c1073741822], strides: [1] : memref<16384x16384xbf16, strided<[16384, 1], offset: ?>> to memref<?xbf16, strided<[1], offset: ?>>
        %541 = amdgpu.fat_raw_buffer_cast %reinterpret_cast_6 validBytes(%c2147483645_i32) : memref<?xbf16, strided<[1], offset: ?>> to memref<?xbf16, strided<[1], offset: ?>, #amdgpu.address_space<fat_raw_buffer>>
        vector.store %532, %541[%540] : memref<?xbf16, strided<[1], offset: ?>, #amdgpu.address_space<fat_raw_buffer>>, vector<1xbf16>
        %542 = vector.extract_strided_slice %500 {offsets = [1], sizes = [1], strides = [1]} : vector<4xbf16> to vector<1xbf16>
        %543 = affine.apply #map44()[%thread_id_x]
        %544 = arith.muli %543, %c16384 overflow<nsw> : index
        %545 = arith.addi %544, %112 overflow<nsw> : index
        vector.store %542, %541[%545] : memref<?xbf16, strided<[1], offset: ?>, #amdgpu.address_space<fat_raw_buffer>>, vector<1xbf16>
        %546 = vector.extract_strided_slice %500 {offsets = [2], sizes = [1], strides = [1]} : vector<4xbf16> to vector<1xbf16>
        %547 = affine.apply #map45()[%thread_id_x]
        %548 = arith.muli %547, %c16384 overflow<nsw> : index
        %549 = arith.addi %548, %112 overflow<nsw> : index
        vector.store %546, %541[%549] : memref<?xbf16, strided<[1], offset: ?>, #amdgpu.address_space<fat_raw_buffer>>, vector<1xbf16>
        %550 = vector.extract_strided_slice %500 {offsets = [3], sizes = [1], strides = [1]} : vector<4xbf16> to vector<1xbf16>
        %551 = affine.apply #map46()[%thread_id_x]
        %552 = arith.muli %551, %c16384 overflow<nsw> : index
        %553 = arith.addi %552, %112 overflow<nsw> : index
        vector.store %550, %541[%553] : memref<?xbf16, strided<[1], offset: ?>, #amdgpu.address_space<fat_raw_buffer>>, vector<1xbf16>
        %554 = vector.extract_strided_slice %501 {offsets = [0], sizes = [1], strides = [1]} : vector<4xbf16> to vector<1xbf16>
        %555 = arith.addi %538, %121 overflow<nsw> : index
        vector.store %554, %541[%555] : memref<?xbf16, strided<[1], offset: ?>, #amdgpu.address_space<fat_raw_buffer>>, vector<1xbf16>
        %556 = vector.extract_strided_slice %501 {offsets = [1], sizes = [1], strides = [1]} : vector<4xbf16> to vector<1xbf16>
        %557 = arith.addi %544, %121 overflow<nsw> : index
        vector.store %556, %541[%557] : memref<?xbf16, strided<[1], offset: ?>, #amdgpu.address_space<fat_raw_buffer>>, vector<1xbf16>
        %558 = vector.extract_strided_slice %501 {offsets = [2], sizes = [1], strides = [1]} : vector<4xbf16> to vector<1xbf16>
        %559 = arith.addi %548, %121 overflow<nsw> : index
        vector.store %558, %541[%559] : memref<?xbf16, strided<[1], offset: ?>, #amdgpu.address_space<fat_raw_buffer>>, vector<1xbf16>
        %560 = vector.extract_strided_slice %501 {offsets = [3], sizes = [1], strides = [1]} : vector<4xbf16> to vector<1xbf16>
        %561 = arith.addi %552, %121 overflow<nsw> : index
        vector.store %560, %541[%561] : memref<?xbf16, strided<[1], offset: ?>, #amdgpu.address_space<fat_raw_buffer>>, vector<1xbf16>
        %562 = vector.extract_strided_slice %502 {offsets = [0], sizes = [1], strides = [1]} : vector<4xbf16> to vector<1xbf16>
        %563 = arith.addi %538, %126 overflow<nsw> : index
        vector.store %562, %541[%563] : memref<?xbf16, strided<[1], offset: ?>, #amdgpu.address_space<fat_raw_buffer>>, vector<1xbf16>
        %564 = vector.extract_strided_slice %502 {offsets = [1], sizes = [1], strides = [1]} : vector<4xbf16> to vector<1xbf16>
        %565 = arith.addi %544, %126 overflow<nsw> : index
        vector.store %564, %541[%565] : memref<?xbf16, strided<[1], offset: ?>, #amdgpu.address_space<fat_raw_buffer>>, vector<1xbf16>
        %566 = vector.extract_strided_slice %502 {offsets = [2], sizes = [1], strides = [1]} : vector<4xbf16> to vector<1xbf16>
        %567 = arith.addi %548, %126 overflow<nsw> : index
        vector.store %566, %541[%567] : memref<?xbf16, strided<[1], offset: ?>, #amdgpu.address_space<fat_raw_buffer>>, vector<1xbf16>
        %568 = vector.extract_strided_slice %502 {offsets = [3], sizes = [1], strides = [1]} : vector<4xbf16> to vector<1xbf16>
        %569 = arith.addi %552, %126 overflow<nsw> : index
        vector.store %568, %541[%569] : memref<?xbf16, strided<[1], offset: ?>, #amdgpu.address_space<fat_raw_buffer>>, vector<1xbf16>
        %570 = vector.extract_strided_slice %503 {offsets = [0], sizes = [1], strides = [1]} : vector<4xbf16> to vector<1xbf16>
        %571 = arith.addi %538, %131 overflow<nsw> : index
        vector.store %570, %541[%571] : memref<?xbf16, strided<[1], offset: ?>, #amdgpu.address_space<fat_raw_buffer>>, vector<1xbf16>
        %572 = vector.extract_strided_slice %503 {offsets = [1], sizes = [1], strides = [1]} : vector<4xbf16> to vector<1xbf16>
        %573 = arith.addi %544, %131 overflow<nsw> : index
        vector.store %572, %541[%573] : memref<?xbf16, strided<[1], offset: ?>, #amdgpu.address_space<fat_raw_buffer>>, vector<1xbf16>
        %574 = vector.extract_strided_slice %503 {offsets = [2], sizes = [1], strides = [1]} : vector<4xbf16> to vector<1xbf16>
        %575 = arith.addi %548, %131 overflow<nsw> : index
        vector.store %574, %541[%575] : memref<?xbf16, strided<[1], offset: ?>, #amdgpu.address_space<fat_raw_buffer>>, vector<1xbf16>
        %576 = vector.extract_strided_slice %503 {offsets = [3], sizes = [1], strides = [1]} : vector<4xbf16> to vector<1xbf16>
        %577 = arith.addi %552, %131 overflow<nsw> : index
        vector.store %576, %541[%577] : memref<?xbf16, strided<[1], offset: ?>, #amdgpu.address_space<fat_raw_buffer>>, vector<1xbf16>
        %578 = vector.extract_strided_slice %504 {offsets = [0], sizes = [1], strides = [1]} : vector<4xbf16> to vector<1xbf16>
        %579 = arith.addi %538, %136 overflow<nsw> : index
        vector.store %578, %541[%579] : memref<?xbf16, strided<[1], offset: ?>, #amdgpu.address_space<fat_raw_buffer>>, vector<1xbf16>
        %580 = vector.extract_strided_slice %504 {offsets = [1], sizes = [1], strides = [1]} : vector<4xbf16> to vector<1xbf16>
        %581 = arith.addi %544, %136 overflow<nsw> : index
        vector.store %580, %541[%581] : memref<?xbf16, strided<[1], offset: ?>, #amdgpu.address_space<fat_raw_buffer>>, vector<1xbf16>
        %582 = vector.extract_strided_slice %504 {offsets = [2], sizes = [1], strides = [1]} : vector<4xbf16> to vector<1xbf16>
        %583 = arith.addi %548, %136 overflow<nsw> : index
        vector.store %582, %541[%583] : memref<?xbf16, strided<[1], offset: ?>, #amdgpu.address_space<fat_raw_buffer>>, vector<1xbf16>
        %584 = vector.extract_strided_slice %504 {offsets = [3], sizes = [1], strides = [1]} : vector<4xbf16> to vector<1xbf16>
        %585 = arith.addi %552, %136 overflow<nsw> : index
        vector.store %584, %541[%585] : memref<?xbf16, strided<[1], offset: ?>, #amdgpu.address_space<fat_raw_buffer>>, vector<1xbf16>
        %586 = vector.extract_strided_slice %505 {offsets = [0], sizes = [1], strides = [1]} : vector<4xbf16> to vector<1xbf16>
        %587 = arith.addi %538, %141 overflow<nsw> : index
        vector.store %586, %541[%587] : memref<?xbf16, strided<[1], offset: ?>, #amdgpu.address_space<fat_raw_buffer>>, vector<1xbf16>
        %588 = vector.extract_strided_slice %505 {offsets = [1], sizes = [1], strides = [1]} : vector<4xbf16> to vector<1xbf16>
        %589 = arith.addi %544, %141 overflow<nsw> : index
        vector.store %588, %541[%589] : memref<?xbf16, strided<[1], offset: ?>, #amdgpu.address_space<fat_raw_buffer>>, vector<1xbf16>
        %590 = vector.extract_strided_slice %505 {offsets = [2], sizes = [1], strides = [1]} : vector<4xbf16> to vector<1xbf16>
        %591 = arith.addi %548, %141 overflow<nsw> : index
        vector.store %590, %541[%591] : memref<?xbf16, strided<[1], offset: ?>, #amdgpu.address_space<fat_raw_buffer>>, vector<1xbf16>
        %592 = vector.extract_strided_slice %505 {offsets = [3], sizes = [1], strides = [1]} : vector<4xbf16> to vector<1xbf16>
        %593 = arith.addi %552, %141 overflow<nsw> : index
        vector.store %592, %541[%593] : memref<?xbf16, strided<[1], offset: ?>, #amdgpu.address_space<fat_raw_buffer>>, vector<1xbf16>
        %594 = vector.extract_strided_slice %506 {offsets = [0], sizes = [1], strides = [1]} : vector<4xbf16> to vector<1xbf16>
        %595 = arith.addi %538, %146 overflow<nsw> : index
        vector.store %594, %541[%595] : memref<?xbf16, strided<[1], offset: ?>, #amdgpu.address_space<fat_raw_buffer>>, vector<1xbf16>
        %596 = vector.extract_strided_slice %506 {offsets = [1], sizes = [1], strides = [1]} : vector<4xbf16> to vector<1xbf16>
        %597 = arith.addi %544, %146 overflow<nsw> : index
        vector.store %596, %541[%597] : memref<?xbf16, strided<[1], offset: ?>, #amdgpu.address_space<fat_raw_buffer>>, vector<1xbf16>
        %598 = vector.extract_strided_slice %506 {offsets = [2], sizes = [1], strides = [1]} : vector<4xbf16> to vector<1xbf16>
        %599 = arith.addi %548, %146 overflow<nsw> : index
        vector.store %598, %541[%599] : memref<?xbf16, strided<[1], offset: ?>, #amdgpu.address_space<fat_raw_buffer>>, vector<1xbf16>
        %600 = vector.extract_strided_slice %506 {offsets = [3], sizes = [1], strides = [1]} : vector<4xbf16> to vector<1xbf16>
        %601 = arith.addi %552, %146 overflow<nsw> : index
        vector.store %600, %541[%601] : memref<?xbf16, strided<[1], offset: ?>, #amdgpu.address_space<fat_raw_buffer>>, vector<1xbf16>
        %602 = vector.extract_strided_slice %507 {offsets = [0], sizes = [1], strides = [1]} : vector<4xbf16> to vector<1xbf16>
        %603 = arith.addi %538, %151 overflow<nsw> : index
        vector.store %602, %541[%603] : memref<?xbf16, strided<[1], offset: ?>, #amdgpu.address_space<fat_raw_buffer>>, vector<1xbf16>
        %604 = vector.extract_strided_slice %507 {offsets = [1], sizes = [1], strides = [1]} : vector<4xbf16> to vector<1xbf16>
        %605 = arith.addi %544, %151 overflow<nsw> : index
        vector.store %604, %541[%605] : memref<?xbf16, strided<[1], offset: ?>, #amdgpu.address_space<fat_raw_buffer>>, vector<1xbf16>
        %606 = vector.extract_strided_slice %507 {offsets = [2], sizes = [1], strides = [1]} : vector<4xbf16> to vector<1xbf16>
        %607 = arith.addi %548, %151 overflow<nsw> : index
        vector.store %606, %541[%607] : memref<?xbf16, strided<[1], offset: ?>, #amdgpu.address_space<fat_raw_buffer>>, vector<1xbf16>
        %608 = vector.extract_strided_slice %507 {offsets = [3], sizes = [1], strides = [1]} : vector<4xbf16> to vector<1xbf16>
        %609 = arith.addi %552, %151 overflow<nsw> : index
        vector.store %608, %541[%609] : memref<?xbf16, strided<[1], offset: ?>, #amdgpu.address_space<fat_raw_buffer>>, vector<1xbf16>
        %610 = vector.extract_strided_slice %508 {offsets = [0], sizes = [1], strides = [1]} : vector<4xbf16> to vector<1xbf16>
        %611 = affine.apply #map47()[%thread_id_x]
        %612 = arith.muli %611, %c16384 overflow<nsw> : index
        %613 = arith.addi %612, %112 overflow<nsw> : index
        vector.store %610, %541[%613] : memref<?xbf16, strided<[1], offset: ?>, #amdgpu.address_space<fat_raw_buffer>>, vector<1xbf16>
        %614 = vector.extract_strided_slice %508 {offsets = [1], sizes = [1], strides = [1]} : vector<4xbf16> to vector<1xbf16>
        %615 = affine.apply #map48()[%thread_id_x]
        %616 = arith.muli %615, %c16384 overflow<nsw> : index
        %617 = arith.addi %616, %112 overflow<nsw> : index
        vector.store %614, %541[%617] : memref<?xbf16, strided<[1], offset: ?>, #amdgpu.address_space<fat_raw_buffer>>, vector<1xbf16>
        %618 = vector.extract_strided_slice %508 {offsets = [2], sizes = [1], strides = [1]} : vector<4xbf16> to vector<1xbf16>
        %619 = affine.apply #map49()[%thread_id_x]
        %620 = arith.muli %619, %c16384 overflow<nsw> : index
        %621 = arith.addi %620, %112 overflow<nsw> : index
        vector.store %618, %541[%621] : memref<?xbf16, strided<[1], offset: ?>, #amdgpu.address_space<fat_raw_buffer>>, vector<1xbf16>
        %622 = vector.extract_strided_slice %508 {offsets = [3], sizes = [1], strides = [1]} : vector<4xbf16> to vector<1xbf16>
        %623 = affine.apply #map50()[%thread_id_x]
        %624 = arith.muli %623, %c16384 overflow<nsw> : index
        %625 = arith.addi %624, %112 overflow<nsw> : index
        vector.store %622, %541[%625] : memref<?xbf16, strided<[1], offset: ?>, #amdgpu.address_space<fat_raw_buffer>>, vector<1xbf16>
        %626 = vector.extract_strided_slice %509 {offsets = [0], sizes = [1], strides = [1]} : vector<4xbf16> to vector<1xbf16>
        %627 = arith.addi %612, %121 overflow<nsw> : index
        vector.store %626, %541[%627] : memref<?xbf16, strided<[1], offset: ?>, #amdgpu.address_space<fat_raw_buffer>>, vector<1xbf16>
        %628 = vector.extract_strided_slice %509 {offsets = [1], sizes = [1], strides = [1]} : vector<4xbf16> to vector<1xbf16>
        %629 = arith.addi %616, %121 overflow<nsw> : index
        vector.store %628, %541[%629] : memref<?xbf16, strided<[1], offset: ?>, #amdgpu.address_space<fat_raw_buffer>>, vector<1xbf16>
        %630 = vector.extract_strided_slice %509 {offsets = [2], sizes = [1], strides = [1]} : vector<4xbf16> to vector<1xbf16>
        %631 = arith.addi %620, %121 overflow<nsw> : index
        vector.store %630, %541[%631] : memref<?xbf16, strided<[1], offset: ?>, #amdgpu.address_space<fat_raw_buffer>>, vector<1xbf16>
        %632 = vector.extract_strided_slice %509 {offsets = [3], sizes = [1], strides = [1]} : vector<4xbf16> to vector<1xbf16>
        %633 = arith.addi %624, %121 overflow<nsw> : index
        vector.store %632, %541[%633] : memref<?xbf16, strided<[1], offset: ?>, #amdgpu.address_space<fat_raw_buffer>>, vector<1xbf16>
        %634 = vector.extract_strided_slice %510 {offsets = [0], sizes = [1], strides = [1]} : vector<4xbf16> to vector<1xbf16>
        %635 = arith.addi %612, %126 overflow<nsw> : index
        vector.store %634, %541[%635] : memref<?xbf16, strided<[1], offset: ?>, #amdgpu.address_space<fat_raw_buffer>>, vector<1xbf16>
        %636 = vector.extract_strided_slice %510 {offsets = [1], sizes = [1], strides = [1]} : vector<4xbf16> to vector<1xbf16>
        %637 = arith.addi %616, %126 overflow<nsw> : index
        vector.store %636, %541[%637] : memref<?xbf16, strided<[1], offset: ?>, #amdgpu.address_space<fat_raw_buffer>>, vector<1xbf16>
        %638 = vector.extract_strided_slice %510 {offsets = [2], sizes = [1], strides = [1]} : vector<4xbf16> to vector<1xbf16>
        %639 = arith.addi %620, %126 overflow<nsw> : index
        vector.store %638, %541[%639] : memref<?xbf16, strided<[1], offset: ?>, #amdgpu.address_space<fat_raw_buffer>>, vector<1xbf16>
        %640 = vector.extract_strided_slice %510 {offsets = [3], sizes = [1], strides = [1]} : vector<4xbf16> to vector<1xbf16>
        %641 = arith.addi %624, %126 overflow<nsw> : index
        vector.store %640, %541[%641] : memref<?xbf16, strided<[1], offset: ?>, #amdgpu.address_space<fat_raw_buffer>>, vector<1xbf16>
        %642 = vector.extract_strided_slice %511 {offsets = [0], sizes = [1], strides = [1]} : vector<4xbf16> to vector<1xbf16>
        %643 = arith.addi %612, %131 overflow<nsw> : index
        vector.store %642, %541[%643] : memref<?xbf16, strided<[1], offset: ?>, #amdgpu.address_space<fat_raw_buffer>>, vector<1xbf16>
        %644 = vector.extract_strided_slice %511 {offsets = [1], sizes = [1], strides = [1]} : vector<4xbf16> to vector<1xbf16>
        %645 = arith.addi %616, %131 overflow<nsw> : index
        vector.store %644, %541[%645] : memref<?xbf16, strided<[1], offset: ?>, #amdgpu.address_space<fat_raw_buffer>>, vector<1xbf16>
        %646 = vector.extract_strided_slice %511 {offsets = [2], sizes = [1], strides = [1]} : vector<4xbf16> to vector<1xbf16>
        %647 = arith.addi %620, %131 overflow<nsw> : index
        vector.store %646, %541[%647] : memref<?xbf16, strided<[1], offset: ?>, #amdgpu.address_space<fat_raw_buffer>>, vector<1xbf16>
        %648 = vector.extract_strided_slice %511 {offsets = [3], sizes = [1], strides = [1]} : vector<4xbf16> to vector<1xbf16>
        %649 = arith.addi %624, %131 overflow<nsw> : index
        vector.store %648, %541[%649] : memref<?xbf16, strided<[1], offset: ?>, #amdgpu.address_space<fat_raw_buffer>>, vector<1xbf16>
        %650 = vector.extract_strided_slice %512 {offsets = [0], sizes = [1], strides = [1]} : vector<4xbf16> to vector<1xbf16>
        %651 = arith.addi %612, %136 overflow<nsw> : index
        vector.store %650, %541[%651] : memref<?xbf16, strided<[1], offset: ?>, #amdgpu.address_space<fat_raw_buffer>>, vector<1xbf16>
        %652 = vector.extract_strided_slice %512 {offsets = [1], sizes = [1], strides = [1]} : vector<4xbf16> to vector<1xbf16>
        %653 = arith.addi %616, %136 overflow<nsw> : index
        vector.store %652, %541[%653] : memref<?xbf16, strided<[1], offset: ?>, #amdgpu.address_space<fat_raw_buffer>>, vector<1xbf16>
        %654 = vector.extract_strided_slice %512 {offsets = [2], sizes = [1], strides = [1]} : vector<4xbf16> to vector<1xbf16>
        %655 = arith.addi %620, %136 overflow<nsw> : index
        vector.store %654, %541[%655] : memref<?xbf16, strided<[1], offset: ?>, #amdgpu.address_space<fat_raw_buffer>>, vector<1xbf16>
        %656 = vector.extract_strided_slice %512 {offsets = [3], sizes = [1], strides = [1]} : vector<4xbf16> to vector<1xbf16>
        %657 = arith.addi %624, %136 overflow<nsw> : index
        vector.store %656, %541[%657] : memref<?xbf16, strided<[1], offset: ?>, #amdgpu.address_space<fat_raw_buffer>>, vector<1xbf16>
        %658 = vector.extract_strided_slice %513 {offsets = [0], sizes = [1], strides = [1]} : vector<4xbf16> to vector<1xbf16>
        %659 = arith.addi %612, %141 overflow<nsw> : index
        vector.store %658, %541[%659] : memref<?xbf16, strided<[1], offset: ?>, #amdgpu.address_space<fat_raw_buffer>>, vector<1xbf16>
        %660 = vector.extract_strided_slice %513 {offsets = [1], sizes = [1], strides = [1]} : vector<4xbf16> to vector<1xbf16>
        %661 = arith.addi %616, %141 overflow<nsw> : index
        vector.store %660, %541[%661] : memref<?xbf16, strided<[1], offset: ?>, #amdgpu.address_space<fat_raw_buffer>>, vector<1xbf16>
        %662 = vector.extract_strided_slice %513 {offsets = [2], sizes = [1], strides = [1]} : vector<4xbf16> to vector<1xbf16>
        %663 = arith.addi %620, %141 overflow<nsw> : index
        vector.store %662, %541[%663] : memref<?xbf16, strided<[1], offset: ?>, #amdgpu.address_space<fat_raw_buffer>>, vector<1xbf16>
        %664 = vector.extract_strided_slice %513 {offsets = [3], sizes = [1], strides = [1]} : vector<4xbf16> to vector<1xbf16>
        %665 = arith.addi %624, %141 overflow<nsw> : index
        vector.store %664, %541[%665] : memref<?xbf16, strided<[1], offset: ?>, #amdgpu.address_space<fat_raw_buffer>>, vector<1xbf16>
        %666 = vector.extract_strided_slice %514 {offsets = [0], sizes = [1], strides = [1]} : vector<4xbf16> to vector<1xbf16>
        %667 = arith.addi %612, %146 overflow<nsw> : index
        vector.store %666, %541[%667] : memref<?xbf16, strided<[1], offset: ?>, #amdgpu.address_space<fat_raw_buffer>>, vector<1xbf16>
        %668 = vector.extract_strided_slice %514 {offsets = [1], sizes = [1], strides = [1]} : vector<4xbf16> to vector<1xbf16>
        %669 = arith.addi %616, %146 overflow<nsw> : index
        vector.store %668, %541[%669] : memref<?xbf16, strided<[1], offset: ?>, #amdgpu.address_space<fat_raw_buffer>>, vector<1xbf16>
        %670 = vector.extract_strided_slice %514 {offsets = [2], sizes = [1], strides = [1]} : vector<4xbf16> to vector<1xbf16>
        %671 = arith.addi %620, %146 overflow<nsw> : index
        vector.store %670, %541[%671] : memref<?xbf16, strided<[1], offset: ?>, #amdgpu.address_space<fat_raw_buffer>>, vector<1xbf16>
        %672 = vector.extract_strided_slice %514 {offsets = [3], sizes = [1], strides = [1]} : vector<4xbf16> to vector<1xbf16>
        %673 = arith.addi %624, %146 overflow<nsw> : index
        vector.store %672, %541[%673] : memref<?xbf16, strided<[1], offset: ?>, #amdgpu.address_space<fat_raw_buffer>>, vector<1xbf16>
        %674 = vector.extract_strided_slice %515 {offsets = [0], sizes = [1], strides = [1]} : vector<4xbf16> to vector<1xbf16>
        %675 = arith.addi %612, %151 overflow<nsw> : index
        vector.store %674, %541[%675] : memref<?xbf16, strided<[1], offset: ?>, #amdgpu.address_space<fat_raw_buffer>>, vector<1xbf16>
        %676 = vector.extract_strided_slice %515 {offsets = [1], sizes = [1], strides = [1]} : vector<4xbf16> to vector<1xbf16>
        %677 = arith.addi %616, %151 overflow<nsw> : index
        vector.store %676, %541[%677] : memref<?xbf16, strided<[1], offset: ?>, #amdgpu.address_space<fat_raw_buffer>>, vector<1xbf16>
        %678 = vector.extract_strided_slice %515 {offsets = [2], sizes = [1], strides = [1]} : vector<4xbf16> to vector<1xbf16>
        %679 = arith.addi %620, %151 overflow<nsw> : index
        vector.store %678, %541[%679] : memref<?xbf16, strided<[1], offset: ?>, #amdgpu.address_space<fat_raw_buffer>>, vector<1xbf16>
        %680 = vector.extract_strided_slice %515 {offsets = [3], sizes = [1], strides = [1]} : vector<4xbf16> to vector<1xbf16>
        %681 = arith.addi %624, %151 overflow<nsw> : index
        vector.store %680, %541[%681] : memref<?xbf16, strided<[1], offset: ?>, #amdgpu.address_space<fat_raw_buffer>>, vector<1xbf16>
        %682 = vector.extract_strided_slice %516 {offsets = [0], sizes = [1], strides = [1]} : vector<4xbf16> to vector<1xbf16>
        %683 = affine.apply #map51()[%thread_id_x]
        %684 = arith.muli %683, %c16384 overflow<nsw> : index
        %685 = arith.addi %684, %112 overflow<nsw> : index
        vector.store %682, %541[%685] : memref<?xbf16, strided<[1], offset: ?>, #amdgpu.address_space<fat_raw_buffer>>, vector<1xbf16>
        %686 = vector.extract_strided_slice %516 {offsets = [1], sizes = [1], strides = [1]} : vector<4xbf16> to vector<1xbf16>
        %687 = affine.apply #map52()[%thread_id_x]
        %688 = arith.muli %687, %c16384 overflow<nsw> : index
        %689 = arith.addi %688, %112 overflow<nsw> : index
        vector.store %686, %541[%689] : memref<?xbf16, strided<[1], offset: ?>, #amdgpu.address_space<fat_raw_buffer>>, vector<1xbf16>
        %690 = vector.extract_strided_slice %516 {offsets = [2], sizes = [1], strides = [1]} : vector<4xbf16> to vector<1xbf16>
        %691 = affine.apply #map53()[%thread_id_x]
        %692 = arith.muli %691, %c16384 overflow<nsw> : index
        %693 = arith.addi %692, %112 overflow<nsw> : index
        vector.store %690, %541[%693] : memref<?xbf16, strided<[1], offset: ?>, #amdgpu.address_space<fat_raw_buffer>>, vector<1xbf16>
        %694 = vector.extract_strided_slice %516 {offsets = [3], sizes = [1], strides = [1]} : vector<4xbf16> to vector<1xbf16>
        %695 = affine.apply #map54()[%thread_id_x]
        %696 = arith.muli %695, %c16384 overflow<nsw> : index
        %697 = arith.addi %696, %112 overflow<nsw> : index
        vector.store %694, %541[%697] : memref<?xbf16, strided<[1], offset: ?>, #amdgpu.address_space<fat_raw_buffer>>, vector<1xbf16>
        %698 = vector.extract_strided_slice %517 {offsets = [0], sizes = [1], strides = [1]} : vector<4xbf16> to vector<1xbf16>
        %699 = arith.addi %684, %121 overflow<nsw> : index
        vector.store %698, %541[%699] : memref<?xbf16, strided<[1], offset: ?>, #amdgpu.address_space<fat_raw_buffer>>, vector<1xbf16>
        %700 = vector.extract_strided_slice %517 {offsets = [1], sizes = [1], strides = [1]} : vector<4xbf16> to vector<1xbf16>
        %701 = arith.addi %688, %121 overflow<nsw> : index
        vector.store %700, %541[%701] : memref<?xbf16, strided<[1], offset: ?>, #amdgpu.address_space<fat_raw_buffer>>, vector<1xbf16>
        %702 = vector.extract_strided_slice %517 {offsets = [2], sizes = [1], strides = [1]} : vector<4xbf16> to vector<1xbf16>
        %703 = arith.addi %692, %121 overflow<nsw> : index
        vector.store %702, %541[%703] : memref<?xbf16, strided<[1], offset: ?>, #amdgpu.address_space<fat_raw_buffer>>, vector<1xbf16>
        %704 = vector.extract_strided_slice %517 {offsets = [3], sizes = [1], strides = [1]} : vector<4xbf16> to vector<1xbf16>
        %705 = arith.addi %696, %121 overflow<nsw> : index
        vector.store %704, %541[%705] : memref<?xbf16, strided<[1], offset: ?>, #amdgpu.address_space<fat_raw_buffer>>, vector<1xbf16>
        %706 = vector.extract_strided_slice %518 {offsets = [0], sizes = [1], strides = [1]} : vector<4xbf16> to vector<1xbf16>
        %707 = arith.addi %684, %126 overflow<nsw> : index
        vector.store %706, %541[%707] : memref<?xbf16, strided<[1], offset: ?>, #amdgpu.address_space<fat_raw_buffer>>, vector<1xbf16>
        %708 = vector.extract_strided_slice %518 {offsets = [1], sizes = [1], strides = [1]} : vector<4xbf16> to vector<1xbf16>
        %709 = arith.addi %688, %126 overflow<nsw> : index
        vector.store %708, %541[%709] : memref<?xbf16, strided<[1], offset: ?>, #amdgpu.address_space<fat_raw_buffer>>, vector<1xbf16>
        %710 = vector.extract_strided_slice %518 {offsets = [2], sizes = [1], strides = [1]} : vector<4xbf16> to vector<1xbf16>
        %711 = arith.addi %692, %126 overflow<nsw> : index
        vector.store %710, %541[%711] : memref<?xbf16, strided<[1], offset: ?>, #amdgpu.address_space<fat_raw_buffer>>, vector<1xbf16>
        %712 = vector.extract_strided_slice %518 {offsets = [3], sizes = [1], strides = [1]} : vector<4xbf16> to vector<1xbf16>
        %713 = arith.addi %696, %126 overflow<nsw> : index
        vector.store %712, %541[%713] : memref<?xbf16, strided<[1], offset: ?>, #amdgpu.address_space<fat_raw_buffer>>, vector<1xbf16>
        %714 = vector.extract_strided_slice %519 {offsets = [0], sizes = [1], strides = [1]} : vector<4xbf16> to vector<1xbf16>
        %715 = arith.addi %684, %131 overflow<nsw> : index
        vector.store %714, %541[%715] : memref<?xbf16, strided<[1], offset: ?>, #amdgpu.address_space<fat_raw_buffer>>, vector<1xbf16>
        %716 = vector.extract_strided_slice %519 {offsets = [1], sizes = [1], strides = [1]} : vector<4xbf16> to vector<1xbf16>
        %717 = arith.addi %688, %131 overflow<nsw> : index
        vector.store %716, %541[%717] : memref<?xbf16, strided<[1], offset: ?>, #amdgpu.address_space<fat_raw_buffer>>, vector<1xbf16>
        %718 = vector.extract_strided_slice %519 {offsets = [2], sizes = [1], strides = [1]} : vector<4xbf16> to vector<1xbf16>
        %719 = arith.addi %692, %131 overflow<nsw> : index
        vector.store %718, %541[%719] : memref<?xbf16, strided<[1], offset: ?>, #amdgpu.address_space<fat_raw_buffer>>, vector<1xbf16>
        %720 = vector.extract_strided_slice %519 {offsets = [3], sizes = [1], strides = [1]} : vector<4xbf16> to vector<1xbf16>
        %721 = arith.addi %696, %131 overflow<nsw> : index
        vector.store %720, %541[%721] : memref<?xbf16, strided<[1], offset: ?>, #amdgpu.address_space<fat_raw_buffer>>, vector<1xbf16>
        %722 = vector.extract_strided_slice %520 {offsets = [0], sizes = [1], strides = [1]} : vector<4xbf16> to vector<1xbf16>
        %723 = arith.addi %684, %136 overflow<nsw> : index
        vector.store %722, %541[%723] : memref<?xbf16, strided<[1], offset: ?>, #amdgpu.address_space<fat_raw_buffer>>, vector<1xbf16>
        %724 = vector.extract_strided_slice %520 {offsets = [1], sizes = [1], strides = [1]} : vector<4xbf16> to vector<1xbf16>
        %725 = arith.addi %688, %136 overflow<nsw> : index
        vector.store %724, %541[%725] : memref<?xbf16, strided<[1], offset: ?>, #amdgpu.address_space<fat_raw_buffer>>, vector<1xbf16>
        %726 = vector.extract_strided_slice %520 {offsets = [2], sizes = [1], strides = [1]} : vector<4xbf16> to vector<1xbf16>
        %727 = arith.addi %692, %136 overflow<nsw> : index
        vector.store %726, %541[%727] : memref<?xbf16, strided<[1], offset: ?>, #amdgpu.address_space<fat_raw_buffer>>, vector<1xbf16>
        %728 = vector.extract_strided_slice %520 {offsets = [3], sizes = [1], strides = [1]} : vector<4xbf16> to vector<1xbf16>
        %729 = arith.addi %696, %136 overflow<nsw> : index
        vector.store %728, %541[%729] : memref<?xbf16, strided<[1], offset: ?>, #amdgpu.address_space<fat_raw_buffer>>, vector<1xbf16>
        %730 = vector.extract_strided_slice %521 {offsets = [0], sizes = [1], strides = [1]} : vector<4xbf16> to vector<1xbf16>
        %731 = arith.addi %684, %141 overflow<nsw> : index
        vector.store %730, %541[%731] : memref<?xbf16, strided<[1], offset: ?>, #amdgpu.address_space<fat_raw_buffer>>, vector<1xbf16>
        %732 = vector.extract_strided_slice %521 {offsets = [1], sizes = [1], strides = [1]} : vector<4xbf16> to vector<1xbf16>
        %733 = arith.addi %688, %141 overflow<nsw> : index
        vector.store %732, %541[%733] : memref<?xbf16, strided<[1], offset: ?>, #amdgpu.address_space<fat_raw_buffer>>, vector<1xbf16>
        %734 = vector.extract_strided_slice %521 {offsets = [2], sizes = [1], strides = [1]} : vector<4xbf16> to vector<1xbf16>
        %735 = arith.addi %692, %141 overflow<nsw> : index
        vector.store %734, %541[%735] : memref<?xbf16, strided<[1], offset: ?>, #amdgpu.address_space<fat_raw_buffer>>, vector<1xbf16>
        %736 = vector.extract_strided_slice %521 {offsets = [3], sizes = [1], strides = [1]} : vector<4xbf16> to vector<1xbf16>
        %737 = arith.addi %696, %141 overflow<nsw> : index
        vector.store %736, %541[%737] : memref<?xbf16, strided<[1], offset: ?>, #amdgpu.address_space<fat_raw_buffer>>, vector<1xbf16>
        %738 = vector.extract_strided_slice %522 {offsets = [0], sizes = [1], strides = [1]} : vector<4xbf16> to vector<1xbf16>
        %739 = arith.addi %684, %146 overflow<nsw> : index
        vector.store %738, %541[%739] : memref<?xbf16, strided<[1], offset: ?>, #amdgpu.address_space<fat_raw_buffer>>, vector<1xbf16>
        %740 = vector.extract_strided_slice %522 {offsets = [1], sizes = [1], strides = [1]} : vector<4xbf16> to vector<1xbf16>
        %741 = arith.addi %688, %146 overflow<nsw> : index
        vector.store %740, %541[%741] : memref<?xbf16, strided<[1], offset: ?>, #amdgpu.address_space<fat_raw_buffer>>, vector<1xbf16>
        %742 = vector.extract_strided_slice %522 {offsets = [2], sizes = [1], strides = [1]} : vector<4xbf16> to vector<1xbf16>
        %743 = arith.addi %692, %146 overflow<nsw> : index
        vector.store %742, %541[%743] : memref<?xbf16, strided<[1], offset: ?>, #amdgpu.address_space<fat_raw_buffer>>, vector<1xbf16>
        %744 = vector.extract_strided_slice %522 {offsets = [3], sizes = [1], strides = [1]} : vector<4xbf16> to vector<1xbf16>
        %745 = arith.addi %696, %146 overflow<nsw> : index
        vector.store %744, %541[%745] : memref<?xbf16, strided<[1], offset: ?>, #amdgpu.address_space<fat_raw_buffer>>, vector<1xbf16>
        %746 = vector.extract_strided_slice %523 {offsets = [0], sizes = [1], strides = [1]} : vector<4xbf16> to vector<1xbf16>
        %747 = arith.addi %684, %151 overflow<nsw> : index
        vector.store %746, %541[%747] : memref<?xbf16, strided<[1], offset: ?>, #amdgpu.address_space<fat_raw_buffer>>, vector<1xbf16>
        %748 = vector.extract_strided_slice %523 {offsets = [1], sizes = [1], strides = [1]} : vector<4xbf16> to vector<1xbf16>
        %749 = arith.addi %688, %151 overflow<nsw> : index
        vector.store %748, %541[%749] : memref<?xbf16, strided<[1], offset: ?>, #amdgpu.address_space<fat_raw_buffer>>, vector<1xbf16>
        %750 = vector.extract_strided_slice %523 {offsets = [2], sizes = [1], strides = [1]} : vector<4xbf16> to vector<1xbf16>
        %751 = arith.addi %692, %151 overflow<nsw> : index
        vector.store %750, %541[%751] : memref<?xbf16, strided<[1], offset: ?>, #amdgpu.address_space<fat_raw_buffer>>, vector<1xbf16>
        %752 = vector.extract_strided_slice %523 {offsets = [3], sizes = [1], strides = [1]} : vector<4xbf16> to vector<1xbf16>
        %753 = arith.addi %696, %151 overflow<nsw> : index
        vector.store %752, %541[%753] : memref<?xbf16, strided<[1], offset: ?>, #amdgpu.address_space<fat_raw_buffer>>, vector<1xbf16>
        %754 = vector.extract_strided_slice %524 {offsets = [0], sizes = [1], strides = [1]} : vector<4xbf16> to vector<1xbf16>
        %755 = affine.apply #map55()[%thread_id_x]
        %756 = arith.muli %755, %c16384 overflow<nsw> : index
        %757 = arith.addi %756, %112 overflow<nsw> : index
        vector.store %754, %541[%757] : memref<?xbf16, strided<[1], offset: ?>, #amdgpu.address_space<fat_raw_buffer>>, vector<1xbf16>
        %758 = vector.extract_strided_slice %524 {offsets = [1], sizes = [1], strides = [1]} : vector<4xbf16> to vector<1xbf16>
        %759 = affine.apply #map56()[%thread_id_x]
        %760 = arith.muli %759, %c16384 overflow<nsw> : index
        %761 = arith.addi %760, %112 overflow<nsw> : index
        vector.store %758, %541[%761] : memref<?xbf16, strided<[1], offset: ?>, #amdgpu.address_space<fat_raw_buffer>>, vector<1xbf16>
        %762 = vector.extract_strided_slice %524 {offsets = [2], sizes = [1], strides = [1]} : vector<4xbf16> to vector<1xbf16>
        %763 = affine.apply #map57()[%thread_id_x]
        %764 = arith.muli %763, %c16384 overflow<nsw> : index
        %765 = arith.addi %764, %112 overflow<nsw> : index
        vector.store %762, %541[%765] : memref<?xbf16, strided<[1], offset: ?>, #amdgpu.address_space<fat_raw_buffer>>, vector<1xbf16>
        %766 = vector.extract_strided_slice %524 {offsets = [3], sizes = [1], strides = [1]} : vector<4xbf16> to vector<1xbf16>
        %767 = affine.apply #map58()[%thread_id_x]
        %768 = arith.muli %767, %c16384 overflow<nsw> : index
        %769 = arith.addi %768, %112 overflow<nsw> : index
        vector.store %766, %541[%769] : memref<?xbf16, strided<[1], offset: ?>, #amdgpu.address_space<fat_raw_buffer>>, vector<1xbf16>
        %770 = vector.extract_strided_slice %525 {offsets = [0], sizes = [1], strides = [1]} : vector<4xbf16> to vector<1xbf16>
        %771 = arith.addi %756, %121 overflow<nsw> : index
        vector.store %770, %541[%771] : memref<?xbf16, strided<[1], offset: ?>, #amdgpu.address_space<fat_raw_buffer>>, vector<1xbf16>
        %772 = vector.extract_strided_slice %525 {offsets = [1], sizes = [1], strides = [1]} : vector<4xbf16> to vector<1xbf16>
        %773 = arith.addi %760, %121 overflow<nsw> : index
        vector.store %772, %541[%773] : memref<?xbf16, strided<[1], offset: ?>, #amdgpu.address_space<fat_raw_buffer>>, vector<1xbf16>
        %774 = vector.extract_strided_slice %525 {offsets = [2], sizes = [1], strides = [1]} : vector<4xbf16> to vector<1xbf16>
        %775 = arith.addi %764, %121 overflow<nsw> : index
        vector.store %774, %541[%775] : memref<?xbf16, strided<[1], offset: ?>, #amdgpu.address_space<fat_raw_buffer>>, vector<1xbf16>
        %776 = vector.extract_strided_slice %525 {offsets = [3], sizes = [1], strides = [1]} : vector<4xbf16> to vector<1xbf16>
        %777 = arith.addi %768, %121 overflow<nsw> : index
        vector.store %776, %541[%777] : memref<?xbf16, strided<[1], offset: ?>, #amdgpu.address_space<fat_raw_buffer>>, vector<1xbf16>
        %778 = vector.extract_strided_slice %526 {offsets = [0], sizes = [1], strides = [1]} : vector<4xbf16> to vector<1xbf16>
        %779 = arith.addi %756, %126 overflow<nsw> : index
        vector.store %778, %541[%779] : memref<?xbf16, strided<[1], offset: ?>, #amdgpu.address_space<fat_raw_buffer>>, vector<1xbf16>
        %780 = vector.extract_strided_slice %526 {offsets = [1], sizes = [1], strides = [1]} : vector<4xbf16> to vector<1xbf16>
        %781 = arith.addi %760, %126 overflow<nsw> : index
        vector.store %780, %541[%781] : memref<?xbf16, strided<[1], offset: ?>, #amdgpu.address_space<fat_raw_buffer>>, vector<1xbf16>
        %782 = vector.extract_strided_slice %526 {offsets = [2], sizes = [1], strides = [1]} : vector<4xbf16> to vector<1xbf16>
        %783 = arith.addi %764, %126 overflow<nsw> : index
        vector.store %782, %541[%783] : memref<?xbf16, strided<[1], offset: ?>, #amdgpu.address_space<fat_raw_buffer>>, vector<1xbf16>
        %784 = vector.extract_strided_slice %526 {offsets = [3], sizes = [1], strides = [1]} : vector<4xbf16> to vector<1xbf16>
        %785 = arith.addi %768, %126 overflow<nsw> : index
        vector.store %784, %541[%785] : memref<?xbf16, strided<[1], offset: ?>, #amdgpu.address_space<fat_raw_buffer>>, vector<1xbf16>
        %786 = vector.extract_strided_slice %527 {offsets = [0], sizes = [1], strides = [1]} : vector<4xbf16> to vector<1xbf16>
        %787 = arith.addi %756, %131 overflow<nsw> : index
        vector.store %786, %541[%787] : memref<?xbf16, strided<[1], offset: ?>, #amdgpu.address_space<fat_raw_buffer>>, vector<1xbf16>
        %788 = vector.extract_strided_slice %527 {offsets = [1], sizes = [1], strides = [1]} : vector<4xbf16> to vector<1xbf16>
        %789 = arith.addi %760, %131 overflow<nsw> : index
        vector.store %788, %541[%789] : memref<?xbf16, strided<[1], offset: ?>, #amdgpu.address_space<fat_raw_buffer>>, vector<1xbf16>
        %790 = vector.extract_strided_slice %527 {offsets = [2], sizes = [1], strides = [1]} : vector<4xbf16> to vector<1xbf16>
        %791 = arith.addi %764, %131 overflow<nsw> : index
        vector.store %790, %541[%791] : memref<?xbf16, strided<[1], offset: ?>, #amdgpu.address_space<fat_raw_buffer>>, vector<1xbf16>
        %792 = vector.extract_strided_slice %527 {offsets = [3], sizes = [1], strides = [1]} : vector<4xbf16> to vector<1xbf16>
        %793 = arith.addi %768, %131 overflow<nsw> : index
        vector.store %792, %541[%793] : memref<?xbf16, strided<[1], offset: ?>, #amdgpu.address_space<fat_raw_buffer>>, vector<1xbf16>
        %794 = vector.extract_strided_slice %528 {offsets = [0], sizes = [1], strides = [1]} : vector<4xbf16> to vector<1xbf16>
        %795 = arith.addi %756, %136 overflow<nsw> : index
        vector.store %794, %541[%795] : memref<?xbf16, strided<[1], offset: ?>, #amdgpu.address_space<fat_raw_buffer>>, vector<1xbf16>
        %796 = vector.extract_strided_slice %528 {offsets = [1], sizes = [1], strides = [1]} : vector<4xbf16> to vector<1xbf16>
        %797 = arith.addi %760, %136 overflow<nsw> : index
        vector.store %796, %541[%797] : memref<?xbf16, strided<[1], offset: ?>, #amdgpu.address_space<fat_raw_buffer>>, vector<1xbf16>
        %798 = vector.extract_strided_slice %528 {offsets = [2], sizes = [1], strides = [1]} : vector<4xbf16> to vector<1xbf16>
        %799 = arith.addi %764, %136 overflow<nsw> : index
        vector.store %798, %541[%799] : memref<?xbf16, strided<[1], offset: ?>, #amdgpu.address_space<fat_raw_buffer>>, vector<1xbf16>
        %800 = vector.extract_strided_slice %528 {offsets = [3], sizes = [1], strides = [1]} : vector<4xbf16> to vector<1xbf16>
        %801 = arith.addi %768, %136 overflow<nsw> : index
        vector.store %800, %541[%801] : memref<?xbf16, strided<[1], offset: ?>, #amdgpu.address_space<fat_raw_buffer>>, vector<1xbf16>
        %802 = vector.extract_strided_slice %529 {offsets = [0], sizes = [1], strides = [1]} : vector<4xbf16> to vector<1xbf16>
        %803 = arith.addi %756, %141 overflow<nsw> : index
        vector.store %802, %541[%803] : memref<?xbf16, strided<[1], offset: ?>, #amdgpu.address_space<fat_raw_buffer>>, vector<1xbf16>
        %804 = vector.extract_strided_slice %529 {offsets = [1], sizes = [1], strides = [1]} : vector<4xbf16> to vector<1xbf16>
        %805 = arith.addi %760, %141 overflow<nsw> : index
        vector.store %804, %541[%805] : memref<?xbf16, strided<[1], offset: ?>, #amdgpu.address_space<fat_raw_buffer>>, vector<1xbf16>
        %806 = vector.extract_strided_slice %529 {offsets = [2], sizes = [1], strides = [1]} : vector<4xbf16> to vector<1xbf16>
        %807 = arith.addi %764, %141 overflow<nsw> : index
        vector.store %806, %541[%807] : memref<?xbf16, strided<[1], offset: ?>, #amdgpu.address_space<fat_raw_buffer>>, vector<1xbf16>
        %808 = vector.extract_strided_slice %529 {offsets = [3], sizes = [1], strides = [1]} : vector<4xbf16> to vector<1xbf16>
        %809 = arith.addi %768, %141 overflow<nsw> : index
        vector.store %808, %541[%809] : memref<?xbf16, strided<[1], offset: ?>, #amdgpu.address_space<fat_raw_buffer>>, vector<1xbf16>
        %810 = vector.extract_strided_slice %530 {offsets = [0], sizes = [1], strides = [1]} : vector<4xbf16> to vector<1xbf16>
        %811 = arith.addi %756, %146 overflow<nsw> : index
        vector.store %810, %541[%811] : memref<?xbf16, strided<[1], offset: ?>, #amdgpu.address_space<fat_raw_buffer>>, vector<1xbf16>
        %812 = vector.extract_strided_slice %530 {offsets = [1], sizes = [1], strides = [1]} : vector<4xbf16> to vector<1xbf16>
        %813 = arith.addi %760, %146 overflow<nsw> : index
        vector.store %812, %541[%813] : memref<?xbf16, strided<[1], offset: ?>, #amdgpu.address_space<fat_raw_buffer>>, vector<1xbf16>
        %814 = vector.extract_strided_slice %530 {offsets = [2], sizes = [1], strides = [1]} : vector<4xbf16> to vector<1xbf16>
        %815 = arith.addi %764, %146 overflow<nsw> : index
        vector.store %814, %541[%815] : memref<?xbf16, strided<[1], offset: ?>, #amdgpu.address_space<fat_raw_buffer>>, vector<1xbf16>
        %816 = vector.extract_strided_slice %530 {offsets = [3], sizes = [1], strides = [1]} : vector<4xbf16> to vector<1xbf16>
        %817 = arith.addi %768, %146 overflow<nsw> : index
        vector.store %816, %541[%817] : memref<?xbf16, strided<[1], offset: ?>, #amdgpu.address_space<fat_raw_buffer>>, vector<1xbf16>
        %818 = vector.extract_strided_slice %531 {offsets = [0], sizes = [1], strides = [1]} : vector<4xbf16> to vector<1xbf16>
        %819 = arith.addi %756, %151 overflow<nsw> : index
        vector.store %818, %541[%819] : memref<?xbf16, strided<[1], offset: ?>, #amdgpu.address_space<fat_raw_buffer>>, vector<1xbf16>
        %820 = vector.extract_strided_slice %531 {offsets = [1], sizes = [1], strides = [1]} : vector<4xbf16> to vector<1xbf16>
        %821 = arith.addi %760, %151 overflow<nsw> : index
        vector.store %820, %541[%821] : memref<?xbf16, strided<[1], offset: ?>, #amdgpu.address_space<fat_raw_buffer>>, vector<1xbf16>
        %822 = vector.extract_strided_slice %531 {offsets = [2], sizes = [1], strides = [1]} : vector<4xbf16> to vector<1xbf16>
        %823 = arith.addi %764, %151 overflow<nsw> : index
        vector.store %822, %541[%823] : memref<?xbf16, strided<[1], offset: ?>, #amdgpu.address_space<fat_raw_buffer>>, vector<1xbf16>
        %824 = vector.extract_strided_slice %531 {offsets = [3], sizes = [1], strides = [1]} : vector<4xbf16> to vector<1xbf16>
        %825 = arith.addi %768, %151 overflow<nsw> : index
        vector.store %824, %541[%825] : memref<?xbf16, strided<[1], offset: ?>, #amdgpu.address_space<fat_raw_buffer>>, vector<1xbf16>
        return
      }
    }
  }
  func.func @isolated_benchmark$async(%arg0: !hal.buffer_view, %arg1: !hal.buffer_view, %arg2: !hal.buffer_view, %arg3: !hal.buffer_view, %arg4: !hal.buffer_view, %arg5: !hal.fence, %arg6: !hal.fence) -> !hal.buffer_view {
    %0 = hal.tensor.import wait(%arg5) => %arg0 : !hal.buffer_view -> tensor<16384x8192xi8>
    %1 = hal.tensor.import wait(%arg5) => %arg1 : !hal.buffer_view -> tensor<16384x512xi8>
    %2 = hal.tensor.import wait(%arg5) => %arg2 : !hal.buffer_view -> tensor<16384x8192xi8>
    %3 = hal.tensor.import wait(%arg5) => %arg3 : !hal.buffer_view -> tensor<16384x512xi8>
    %4 = hal.tensor.import wait(%arg5) => %arg4 : !hal.buffer_view -> tensor<16384x16384xbf16>
    %5 = flow.dispatch @gemm_afp4_wfp4_wave::@gemm_afp4_wfp4_wave(%0, %1, %2, %3, %4) : (tensor<16384x8192xi8>, tensor<16384x512xi8>, tensor<16384x8192xi8>, tensor<16384x512xi8>, tensor<16384x16384xbf16>) -> %4
    %6 = hal.tensor.barrier join(%5 : tensor<16384x16384xbf16>) => %arg6 : !hal.fence
    %7 = hal.tensor.export %6 : tensor<16384x16384xbf16> -> !hal.buffer_view
    return %7 : !hal.buffer_view
  }

    func.func @matmul(%arg0: tensor<16384x8192xi8>, %arg1: tensor<16384x512xi8>, %arg2: tensor<16384x8192xi8>, %arg3: tensor<16384x512xi8>, %arg4: tensor<16384x16384xbf16>) -> tensor<16384x16384xbf16> {
    %0 = flow.dispatch @gemm_afp4_wfp4_wave::@gemm_afp4_wfp4_wave(%arg0, %arg1, %arg2, %arg3, %arg4) : (tensor<16384x8192xi8>, tensor<16384x512xi8>, tensor<16384x8192xi8>, tensor<16384x512xi8>, tensor<16384x16384xbf16>) -> %arg4
    return %0 : tensor<16384x16384xbf16>
  }
  
}
